node {
  name: "global_step/Initializer/zeros"
  op: "Const"
  attr {
    key: "_class"
    value {
      list {
        s: "loc:@global_step"
      }
    }
  }
  attr {
    key: "_output_shapes"
    value {
      list {
        shape {
        }
      }
    }
  }
  attr {
    key: "dtype"
    value {
      type: DT_INT64
    }
  }
  attr {
    key: "value"
    value {
      tensor {
        dtype: DT_INT64
        tensor_shape {
        }
        int64_val: 0
      }
    }
  }
}
node {
  name: "global_step"
  op: "VariableV2"
  attr {
    key: "_class"
    value {
      list {
        s: "loc:@global_step"
      }
    }
  }
  attr {
    key: "_output_shapes"
    value {
      list {
        shape {
        }
      }
    }
  }
  attr {
    key: "container"
    value {
      s: ""
    }
  }
  attr {
    key: "dtype"
    value {
      type: DT_INT64
    }
  }
  attr {
    key: "shape"
    value {
      shape {
      }
    }
  }
  attr {
    key: "shared_name"
    value {
      s: ""
    }
  }
}
node {
  name: "global_step/Assign"
  op: "Assign"
  input: "global_step"
  input: "global_step/Initializer/zeros"
  attr {
    key: "T"
    value {
      type: DT_INT64
    }
  }
  attr {
    key: "_class"
    value {
      list {
        s: "loc:@global_step"
      }
    }
  }
  attr {
    key: "_output_shapes"
    value {
      list {
        shape {
        }
      }
    }
  }
  attr {
    key: "use_locking"
    value {
      b: true
    }
  }
  attr {
    key: "validate_shape"
    value {
      b: true
    }
  }
}
node {
  name: "global_step/read"
  op: "Identity"
  input: "global_step"
  attr {
    key: "T"
    value {
      type: DT_INT64
    }
  }
  attr {
    key: "_class"
    value {
      list {
        s: "loc:@global_step"
      }
    }
  }
  attr {
    key: "_output_shapes"
    value {
      list {
        shape {
        }
      }
    }
  }
}
node {
  name: "global_step/IsVariableInitialized"
  op: "IsVariableInitialized"
  input: "global_step"
  attr {
    key: "_class"
    value {
      list {
        s: "loc:@global_step"
      }
    }
  }
  attr {
    key: "_output_shapes"
    value {
      list {
        shape {
        }
      }
    }
  }
  attr {
    key: "dtype"
    value {
      type: DT_INT64
    }
  }
}
node {
  name: "global_step/cond/Switch"
  op: "Switch"
  input: "global_step/IsVariableInitialized"
  input: "global_step/IsVariableInitialized"
  attr {
    key: "T"
    value {
      type: DT_BOOL
    }
  }
  attr {
    key: "_output_shapes"
    value {
      list {
        shape {
        }
        shape {
        }
      }
    }
  }
}
node {
  name: "global_step/cond/switch_t"
  op: "Identity"
  input: "global_step/cond/Switch:1"
  attr {
    key: "T"
    value {
      type: DT_BOOL
    }
  }
  attr {
    key: "_output_shapes"
    value {
      list {
        shape {
        }
      }
    }
  }
}
node {
  name: "global_step/cond/switch_f"
  op: "Identity"
  input: "global_step/cond/Switch"
  attr {
    key: "T"
    value {
      type: DT_BOOL
    }
  }
  attr {
    key: "_output_shapes"
    value {
      list {
        shape {
        }
      }
    }
  }
}
node {
  name: "global_step/cond/pred_id"
  op: "Identity"
  input: "global_step/IsVariableInitialized"
  attr {
    key: "T"
    value {
      type: DT_BOOL
    }
  }
  attr {
    key: "_output_shapes"
    value {
      list {
        shape {
        }
      }
    }
  }
}
node {
  name: "global_step/cond/read"
  op: "Identity"
  input: "global_step/cond/read/Switch:1"
  attr {
    key: "T"
    value {
      type: DT_INT64
    }
  }
  attr {
    key: "_output_shapes"
    value {
      list {
        shape {
        }
      }
    }
  }
}
node {
  name: "global_step/cond/read/Switch"
  op: "RefSwitch"
  input: "global_step"
  input: "global_step/cond/pred_id"
  attr {
    key: "T"
    value {
      type: DT_INT64
    }
  }
  attr {
    key: "_class"
    value {
      list {
        s: "loc:@global_step"
      }
    }
  }
  attr {
    key: "_output_shapes"
    value {
      list {
        shape {
        }
        shape {
        }
      }
    }
  }
}
node {
  name: "global_step/cond/Switch_1"
  op: "Switch"
  input: "global_step/Initializer/zeros"
  input: "global_step/cond/pred_id"
  attr {
    key: "T"
    value {
      type: DT_INT64
    }
  }
  attr {
    key: "_class"
    value {
      list {
        s: "loc:@global_step"
      }
    }
  }
  attr {
    key: "_output_shapes"
    value {
      list {
        shape {
        }
        shape {
        }
      }
    }
  }
}
node {
  name: "global_step/cond/Merge"
  op: "Merge"
  input: "global_step/cond/Switch_1"
  input: "global_step/cond/read"
  attr {
    key: "N"
    value {
      i: 2
    }
  }
  attr {
    key: "T"
    value {
      type: DT_INT64
    }
  }
  attr {
    key: "_output_shapes"
    value {
      list {
        shape {
        }
        shape {
        }
      }
    }
  }
}
node {
  name: "global_step/add/y"
  op: "Const"
  attr {
    key: "_output_shapes"
    value {
      list {
        shape {
        }
      }
    }
  }
  attr {
    key: "dtype"
    value {
      type: DT_INT64
    }
  }
  attr {
    key: "value"
    value {
      tensor {
        dtype: DT_INT64
        tensor_shape {
        }
        int64_val: 0
      }
    }
  }
}
node {
  name: "global_step/add"
  op: "Add"
  input: "global_step/cond/Merge"
  input: "global_step/add/y"
  attr {
    key: "T"
    value {
      type: DT_INT64
    }
  }
  attr {
    key: "_output_shapes"
    value {
      list {
        shape {
        }
      }
    }
  }
}
node {
  name: "tensors/component_0"
  op: "Const"
  device: "/device:CPU:0"
  attr {
    key: "_output_shapes"
    value {
      list {
        shape {
          dim {
            size: 120
          }
          dim {
            size: 10
          }
        }
      }
    }
  }
  attr {
    key: "dtype"
    value {
      type: DT_FLOAT
    }
  }
  attr {
    key: "value"
    value {
      tensor {
        dtype: DT_FLOAT
        tensor_shape {
          dim {
            size: 120
          }
          dim {
            size: 10
          }
        }
        tensor_content: "…"
      }
    }
  }
}
node {
  name: "tensors/component_1"
  op: "Const"
  device: "/device:CPU:0"
  attr {
    key: "_output_shapes"
    value {
      list {
        shape {
          dim {
            size: 120
          }
          dim {
            size: 10
          }
        }
      }
    }
  }
  attr {
    key: "dtype"
    value {
      type: DT_FLOAT
    }
  }
  attr {
    key: "value"
    value {
      tensor {
        dtype: DT_FLOAT
        tensor_shape {
          dim {
            size: 120
          }
          dim {
            size: 10
          }
        }
        tensor_content: "…"
      }
    }
  }
}
node {
  name: "count"
  op: "Const"
  device: "/device:CPU:0"
  attr {
    key: "_output_shapes"
    value {
      list {
        shape {
        }
      }
    }
  }
  attr {
    key: "dtype"
    value {
      type: DT_INT64
    }
  }
  attr {
    key: "value"
    value {
      tensor {
        dtype: DT_INT64
        tensor_shape {
        }
        int64_val: -1
      }
    }
  }
}
node {
  name: "buffer_size"
  op: "Const"
  device: "/device:CPU:0"
  attr {
    key: "_output_shapes"
    value {
      list {
        shape {
        }
      }
    }
  }
  attr {
    key: "dtype"
    value {
      type: DT_INT64
    }
  }
  attr {
    key: "value"
    value {
      tensor {
        dtype: DT_INT64
        tensor_shape {
        }
        int64_val: 580
      }
    }
  }
}
node {
  name: "seed"
  op: "Const"
  device: "/device:CPU:0"
  attr {
    key: "_output_shapes"
    value {
      list {
        shape {
        }
      }
    }
  }
  attr {
    key: "dtype"
    value {
      type: DT_INT64
    }
  }
  attr {
    key: "value"
    value {
      tensor {
        dtype: DT_INT64
        tensor_shape {
        }
        int64_val: 0
      }
    }
  }
}
node {
  name: "seed2"
  op: "Const"
  device: "/device:CPU:0"
  attr {
    key: "_output_shapes"
    value {
      list {
        shape {
        }
      }
    }
  }
  attr {
    key: "dtype"
    value {
      type: DT_INT64
    }
  }
  attr {
    key: "value"
    value {
      tensor {
        dtype: DT_INT64
        tensor_shape {
        }
        int64_val: 0
      }
    }
  }
}
node {
  name: "batch_size"
  op: "Const"
  device: "/device:CPU:0"
  attr {
    key: "_output_shapes"
    value {
      list {
        shape {
        }
      }
    }
  }
  attr {
    key: "dtype"
    value {
      type: DT_INT64
    }
  }
  attr {
    key: "value"
    value {
      tensor {
        dtype: DT_INT64
        tensor_shape {
        }
        int64_val: 32
      }
    }
  }
}
node {
  name: "drop_remainder"
  op: "Const"
  device: "/device:CPU:0"
  attr {
    key: "_output_shapes"
    value {
      list {
        shape {
        }
      }
    }
  }
  attr {
    key: "dtype"
    value {
      type: DT_BOOL
    }
  }
  attr {
    key: "value"
    value {
      tensor {
        dtype: DT_BOOL
        tensor_shape {
        }
        bool_val: false
      }
    }
  }
}
node {
  name: "OneShotIterator"
  op: "OneShotIterator"
  device: "/device:CPU:0"
  attr {
    key: "_output_shapes"
    value {
      list {
        shape {
        }
      }
    }
  }
  attr {
    key: "container"
    value {
      s: ""
    }
  }
  attr {
    key: "dataset_factory"
    value {
      func {
        name: "_make_dataset_yffAtLfeL8Q"
      }
    }
  }
  attr {
    key: "output_shapes"
    value {
      list {
        shape {
          dim {
            size: -1
          }
          dim {
            size: 10
          }
        }
        shape {
          dim {
            size: -1
          }
          dim {
            size: 10
          }
        }
      }
    }
  }
  attr {
    key: "output_types"
    value {
      list {
        type: DT_FLOAT
        type: DT_FLOAT
      }
    }
  }
  attr {
    key: "shared_name"
    value {
      s: ""
    }
  }
}
node {
  name: "IteratorToStringHandle"
  op: "IteratorToStringHandle"
  input: "OneShotIterator"
  device: "/device:CPU:0"
  attr {
    key: "_output_shapes"
    value {
      list {
        shape {
        }
      }
    }
  }
}
node {
  name: "IteratorGetNext"
  op: "IteratorGetNext"
  input: "OneShotIterator"
  device: "/device:CPU:0"
  attr {
    key: "_output_shapes"
    value {
      list {
        shape {
          dim {
            size: -1
          }
          dim {
            size: 10
          }
        }
        shape {
          dim {
            size: -1
          }
          dim {
            size: 10
          }
        }
      }
    }
  }
  attr {
    key: "output_shapes"
    value {
      list {
        shape {
          dim {
            size: -1
          }
          dim {
            size: 10
          }
        }
        shape {
          dim {
            size: -1
          }
          dim {
            size: 10
          }
        }
      }
    }
  }
  attr {
    key: "output_types"
    value {
      list {
        type: DT_FLOAT
        type: DT_FLOAT
      }
    }
  }
}
node {
  name: "ExpandDims/dim"
  op: "Const"
  attr {
    key: "_output_shapes"
    value {
      list {
        shape {
        }
      }
    }
  }
  attr {
    key: "dtype"
    value {
      type: DT_INT32
    }
  }
  attr {
    key: "value"
    value {
      tensor {
        dtype: DT_INT32
        tensor_shape {
        }
        int_val: 2
      }
    }
  }
}
node {
  name: "ExpandDims"
  op: "ExpandDims"
  input: "IteratorGetNext"
  input: "ExpandDims/dim"
  attr {
    key: "T"
    value {
      type: DT_FLOAT
    }
  }
  attr {
    key: "Tdim"
    value {
      type: DT_INT32
    }
  }
  attr {
    key: "_output_shapes"
    value {
      list {
        shape {
          dim {
            size: -1
          }
          dim {
            size: 10
          }
          dim {
            size: 1
          }
        }
      }
    }
  }
}
node {
  name: "Shape"
  op: "Shape"
  input: "ExpandDims"
  attr {
    key: "T"
    value {
      type: DT_FLOAT
    }
  }
  attr {
    key: "_output_shapes"
    value {
      list {
        shape {
          dim {
            size: 3
          }
        }
      }
    }
  }
  attr {
    key: "out_type"
    value {
      type: DT_INT32
    }
  }
}
node {
  name: "strided_slice/stack"
  op: "Const"
  attr {
    key: "_output_shapes"
    value {
      list {
        shape {
          dim {
            size: 1
          }
        }
      }
    }
  }
  attr {
    key: "dtype"
    value {
      type: DT_INT32
    }
  }
  attr {
    key: "value"
    value {
      tensor {
        dtype: DT_INT32
        tensor_shape {
          dim {
            size: 1
          }
        }
        int_val: 0
      }
    }
  }
}
node {
  name: "strided_slice/stack_1"
  op: "Const"
  attr {
    key: "_output_shapes"
    value {
      list {
        shape {
          dim {
            size: 1
          }
        }
      }
    }
  }
  attr {
    key: "dtype"
    value {
      type: DT_INT32
    }
  }
  attr {
    key: "value"
    value {
      tensor {
        dtype: DT_INT32
        tensor_shape {
          dim {
            size: 1
          }
        }
        int_val: 1
      }
    }
  }
}
node {
  name: "strided_slice/stack_2"
  op: "Const"
  attr {
    key: "_output_shapes"
    value {
      list {
        shape {
          dim {
            size: 1
          }
        }
      }
    }
  }
  attr {
    key: "dtype"
    value {
      type: DT_INT32
    }
  }
  attr {
    key: "value"
    value {
      tensor {
        dtype: DT_INT32
        tensor_shape {
          dim {
            size: 1
          }
        }
        int_val: 1
      }
    }
  }
}
node {
  name: "strided_slice"
  op: "StridedSlice"
  input: "Shape"
  input: "strided_slice/stack"
  input: "strided_slice/stack_1"
  input: "strided_slice/stack_2"
  attr {
    key: "Index"
    value {
      type: DT_INT32
    }
  }
  attr {
    key: "T"
    value {
      type: DT_INT32
    }
  }
  attr {
    key: "_output_shapes"
    value {
      list {
        shape {
        }
      }
    }
  }
  attr {
    key: "begin_mask"
    value {
      i: 0
    }
  }
  attr {
    key: "ellipsis_mask"
    value {
      i: 0
    }
  }
  attr {
    key: "end_mask"
    value {
      i: 0
    }
  }
  attr {
    key: "new_axis_mask"
    value {
      i: 0
    }
  }
  attr {
    key: "shrink_axis_mask"
    value {
      i: 1
    }
  }
}
node {
  name: "Shape_1"
  op: "Shape"
  input: "ExpandDims"
  attr {
    key: "T"
    value {
      type: DT_FLOAT
    }
  }
  attr {
    key: "_output_shapes"
    value {
      list {
        shape {
          dim {
            size: 3
          }
        }
      }
    }
  }
  attr {
    key: "out_type"
    value {
      type: DT_INT32
    }
  }
}
node {
  name: "strided_slice_1/stack"
  op: "Const"
  attr {
    key: "_output_shapes"
    value {
      list {
        shape {
          dim {
            size: 1
          }
        }
      }
    }
  }
  attr {
    key: "dtype"
    value {
      type: DT_INT32
    }
  }
  attr {
    key: "value"
    value {
      tensor {
        dtype: DT_INT32
        tensor_shape {
          dim {
            size: 1
          }
        }
        int_val: 1
      }
    }
  }
}
node {
  name: "strided_slice_1/stack_1"
  op: "Const"
  attr {
    key: "_output_shapes"
    value {
      list {
        shape {
          dim {
            size: 1
          }
        }
      }
    }
  }
  attr {
    key: "dtype"
    value {
      type: DT_INT32
    }
  }
  attr {
    key: "value"
    value {
      tensor {
        dtype: DT_INT32
        tensor_shape {
          dim {
            size: 1
          }
        }
        int_val: 2
      }
    }
  }
}
node {
  name: "strided_slice_1/stack_2"
  op: "Const"
  attr {
    key: "_output_shapes"
    value {
      list {
        shape {
          dim {
            size: 1
          }
        }
      }
    }
  }
  attr {
    key: "dtype"
    value {
      type: DT_INT32
    }
  }
  attr {
    key: "value"
    value {
      tensor {
        dtype: DT_INT32
        tensor_shape {
          dim {
            size: 1
          }
        }
        int_val: 1
      }
    }
  }
}
node {
  name: "strided_slice_1"
  op: "StridedSlice"
  input: "Shape_1"
  input: "strided_slice_1/stack"
  input: "strided_slice_1/stack_1"
  input: "strided_slice_1/stack_2"
  attr {
    key: "Index"
    value {
      type: DT_INT32
    }
  }
  attr {
    key: "T"
    value {
      type: DT_INT32
    }
  }
  attr {
    key: "_output_shapes"
    value {
      list {
        shape {
        }
      }
    }
  }
  attr {
    key: "begin_mask"
    value {
      i: 0
    }
  }
  attr {
    key: "ellipsis_mask"
    value {
      i: 0
    }
  }
  attr {
    key: "end_mask"
    value {
      i: 0
    }
  }
  attr {
    key: "new_axis_mask"
    value {
      i: 0
    }
  }
  attr {
    key: "shrink_axis_mask"
    value {
      i: 1
    }
  }
}
node {
  name: "DropoutWrapperInit/Const"
  op: "Const"
  attr {
    key: "_output_shapes"
    value {
      list {
        shape {
        }
      }
    }
  }
  attr {
    key: "dtype"
    value {
      type: DT_FLOAT
    }
  }
  attr {
    key: "value"
    value {
      tensor {
        dtype: DT_FLOAT
        tensor_shape {
        }
        float_val: 1.0
      }
    }
  }
}
node {
  name: "DropoutWrapperInit/Const_1"
  op: "Const"
  attr {
    key: "_output_shapes"
    value {
      list {
        shape {
        }
      }
    }
  }
  attr {
    key: "dtype"
    value {
      type: DT_FLOAT
    }
  }
  attr {
    key: "value"
    value {
      tensor {
        dtype: DT_FLOAT
        tensor_shape {
        }
        float_val: 1.0
      }
    }
  }
}
node {
  name: "DropoutWrapperInit/Const_2"
  op: "Const"
  attr {
    key: "_output_shapes"
    value {
      list {
        shape {
        }
      }
    }
  }
  attr {
    key: "dtype"
    value {
      type: DT_FLOAT
    }
  }
  attr {
    key: "value"
    value {
      tensor {
        dtype: DT_FLOAT
        tensor_shape {
        }
        float_val: 0.699999988079071
      }
    }
  }
}
node {
  name: "rnn/Rank"
  op: "Const"
  attr {
    key: "_output_shapes"
    value {
      list {
        shape {
        }
      }
    }
  }
  attr {
    key: "dtype"
    value {
      type: DT_INT32
    }
  }
  attr {
    key: "value"
    value {
      tensor {
        dtype: DT_INT32
        tensor_shape {
        }
        int_val: 3
      }
    }
  }
}
node {
  name: "rnn/range/start"
  op: "Const"
  attr {
    key: "_output_shapes"
    value {
      list {
        shape {
        }
      }
    }
  }
  attr {
    key: "dtype"
    value {
      type: DT_INT32
    }
  }
  attr {
    key: "value"
    value {
      tensor {
        dtype: DT_INT32
        tensor_shape {
        }
        int_val: 2
      }
    }
  }
}
node {
  name: "rnn/range/delta"
  op: "Const"
  attr {
    key: "_output_shapes"
    value {
      list {
        shape {
        }
      }
    }
  }
  attr {
    key: "dtype"
    value {
      type: DT_INT32
    }
  }
  attr {
    key: "value"
    value {
      tensor {
        dtype: DT_INT32
        tensor_shape {
        }
        int_val: 1
      }
    }
  }
}
node {
  name: "rnn/range"
  op: "Range"
  input: "rnn/range/start"
  input: "rnn/Rank"
  input: "rnn/range/delta"
  attr {
    key: "Tidx"
    value {
      type: DT_INT32
    }
  }
  attr {
    key: "_output_shapes"
    value {
      list {
        shape {
          dim {
            size: 1
          }
        }
      }
    }
  }
}
node {
  name: "rnn/concat/values_0"
  op: "Const"
  attr {
    key: "_output_shapes"
    value {
      list {
        shape {
          dim {
            size: 2
          }
        }
      }
    }
  }
  attr {
    key: "dtype"
    value {
      type: DT_INT32
    }
  }
  attr {
    key: "value"
    value {
      tensor {
        dtype: DT_INT32
        tensor_shape {
          dim {
            size: 2
          }
        }
        tensor_content: "\001\000\000\000\000\000\000\000"
      }
    }
  }
}
node {
  name: "rnn/concat/axis"
  op: "Const"
  attr {
    key: "_output_shapes"
    value {
      list {
        shape {
        }
      }
    }
  }
  attr {
    key: "dtype"
    value {
      type: DT_INT32
    }
  }
  attr {
    key: "value"
    value {
      tensor {
        dtype: DT_INT32
        tensor_shape {
        }
        int_val: 0
      }
    }
  }
}
node {
  name: "rnn/concat"
  op: "ConcatV2"
  input: "rnn/concat/values_0"
  input: "rnn/range"
  input: "rnn/concat/axis"
  attr {
    key: "N"
    value {
      i: 2
    }
  }
  attr {
    key: "T"
    value {
      type: DT_INT32
    }
  }
  attr {
    key: "Tidx"
    value {
      type: DT_INT32
    }
  }
  attr {
    key: "_output_shapes"
    value {
      list {
        shape {
          dim {
            size: 3
          }
        }
      }
    }
  }
}
node {
  name: "rnn/transpose"
  op: "Transpose"
  input: "ExpandDims"
  input: "rnn/concat"
  attr {
    key: "T"
    value {
      type: DT_FLOAT
    }
  }
  attr {
    key: "Tperm"
    value {
      type: DT_INT32
    }
  }
  attr {
    key: "_output_shapes"
    value {
      list {
        shape {
          dim {
            size: 10
          }
          dim {
            size: -1
          }
          dim {
            size: 1
          }
        }
      }
    }
  }
}
node {
  name: "rnn/Shape"
  op: "Shape"
  input: "rnn/transpose"
  attr {
    key: "T"
    value {
      type: DT_FLOAT
    }
  }
  attr {
    key: "_output_shapes"
    value {
      list {
        shape {
          dim {
            size: 3
          }
        }
      }
    }
  }
  attr {
    key: "out_type"
    value {
      type: DT_INT32
    }
  }
}
node {
  name: "rnn/strided_slice/stack"
  op: "Const"
  attr {
    key: "_output_shapes"
    value {
      list {
        shape {
          dim {
            size: 1
          }
        }
      }
    }
  }
  attr {
    key: "dtype"
    value {
      type: DT_INT32
    }
  }
  attr {
    key: "value"
    value {
      tensor {
        dtype: DT_INT32
        tensor_shape {
          dim {
            size: 1
          }
        }
        int_val: 1
      }
    }
  }
}
node {
  name: "rnn/strided_slice/stack_1"
  op: "Const"
  attr {
    key: "_output_shapes"
    value {
      list {
        shape {
          dim {
            size: 1
          }
        }
      }
    }
  }
  attr {
    key: "dtype"
    value {
      type: DT_INT32
    }
  }
  attr {
    key: "value"
    value {
      tensor {
        dtype: DT_INT32
        tensor_shape {
          dim {
            size: 1
          }
        }
        int_val: 2
      }
    }
  }
}
node {
  name: "rnn/strided_slice/stack_2"
  op: "Const"
  attr {
    key: "_output_shapes"
    value {
      list {
        shape {
          dim {
            size: 1
          }
        }
      }
    }
  }
  attr {
    key: "dtype"
    value {
      type: DT_INT32
    }
  }
  attr {
    key: "value"
    value {
      tensor {
        dtype: DT_INT32
        tensor_shape {
          dim {
            size: 1
          }
        }
        int_val: 1
      }
    }
  }
}
node {
  name: "rnn/strided_slice"
  op: "StridedSlice"
  input: "rnn/Shape"
  input: "rnn/strided_slice/stack"
  input: "rnn/strided_slice/stack_1"
  input: "rnn/strided_slice/stack_2"
  attr {
    key: "Index"
    value {
      type: DT_INT32
    }
  }
  attr {
    key: "T"
    value {
      type: DT_INT32
    }
  }
  attr {
    key: "_output_shapes"
    value {
      list {
        shape {
        }
      }
    }
  }
  attr {
    key: "begin_mask"
    value {
      i: 0
    }
  }
  attr {
    key: "ellipsis_mask"
    value {
      i: 0
    }
  }
  attr {
    key: "end_mask"
    value {
      i: 0
    }
  }
  attr {
    key: "new_axis_mask"
    value {
      i: 0
    }
  }
  attr {
    key: "shrink_axis_mask"
    value {
      i: 1
    }
  }
}
node {
  name: "rnn/MultiRNNCellZeroState/MultiRNNCellZeroState/ExpandDims/dim"
  op: "Const"
  attr {
    key: "_output_shapes"
    value {
      list {
        shape {
        }
      }
    }
  }
  attr {
    key: "dtype"
    value {
      type: DT_INT32
    }
  }
  attr {
    key: "value"
    value {
      tensor {
        dtype: DT_INT32
        tensor_shape {
        }
        int_val: 0
      }
    }
  }
}
node {
  name: "rnn/MultiRNNCellZeroState/MultiRNNCellZeroState/ExpandDims"
  op: "ExpandDims"
  input: "rnn/strided_slice"
  input: "rnn/MultiRNNCellZeroState/MultiRNNCellZeroState/ExpandDims/dim"
  attr {
    key: "T"
    value {
      type: DT_INT32
    }
  }
  attr {
    key: "Tdim"
    value {
      type: DT_INT32
    }
  }
  attr {
    key: "_output_shapes"
    value {
      list {
        shape {
          dim {
            size: 1
          }
        }
      }
    }
  }
}
node {
  name: "rnn/MultiRNNCellZeroState/MultiRNNCellZeroState/Const"
  op: "Const"
  attr {
    key: "_output_shapes"
    value {
      list {
        shape {
          dim {
            size: 1
          }
        }
      }
    }
  }
  attr {
    key: "dtype"
    value {
      type: DT_INT32
    }
  }
  attr {
    key: "value"
    value {
      tensor {
        dtype: DT_INT32
        tensor_shape {
          dim {
            size: 1
          }
        }
        int_val: 160
      }
    }
  }
}
node {
  name: "rnn/MultiRNNCellZeroState/MultiRNNCellZeroState/concat/axis"
  op: "Const"
  attr {
    key: "_output_shapes"
    value {
      list {
        shape {
        }
      }
    }
  }
  attr {
    key: "dtype"
    value {
      type: DT_INT32
    }
  }
  attr {
    key: "value"
    value {
      tensor {
        dtype: DT_INT32
        tensor_shape {
        }
        int_val: 0
      }
    }
  }
}
node {
  name: "rnn/MultiRNNCellZeroState/MultiRNNCellZeroState/concat"
  op: "ConcatV2"
  input: "rnn/MultiRNNCellZeroState/MultiRNNCellZeroState/ExpandDims"
  input: "rnn/MultiRNNCellZeroState/MultiRNNCellZeroState/Const"
  input: "rnn/MultiRNNCellZeroState/MultiRNNCellZeroState/concat/axis"
  attr {
    key: "N"
    value {
      i: 2
    }
  }
  attr {
    key: "T"
    value {
      type: DT_INT32
    }
  }
  attr {
    key: "Tidx"
    value {
      type: DT_INT32
    }
  }
  attr {
    key: "_output_shapes"
    value {
      list {
        shape {
          dim {
            size: 2
          }
        }
      }
    }
  }
}
node {
  name: "rnn/MultiRNNCellZeroState/MultiRNNCellZeroState/zeros/Const"
  op: "Const"
  attr {
    key: "_output_shapes"
    value {
      list {
        shape {
        }
      }
    }
  }
  attr {
    key: "dtype"
    value {
      type: DT_FLOAT
    }
  }
  attr {
    key: "value"
    value {
      tensor {
        dtype: DT_FLOAT
        tensor_shape {
        }
        float_val: 0.0
      }
    }
  }
}
node {
  name: "rnn/MultiRNNCellZeroState/MultiRNNCellZeroState/zeros"
  op: "Fill"
  input: "rnn/MultiRNNCellZeroState/MultiRNNCellZeroState/concat"
  input: "rnn/MultiRNNCellZeroState/MultiRNNCellZeroState/zeros/Const"
  attr {
    key: "T"
    value {
      type: DT_FLOAT
    }
  }
  attr {
    key: "_output_shapes"
    value {
      list {
        shape {
          dim {
            size: -1
          }
          dim {
            size: 160
          }
        }
      }
    }
  }
  attr {
    key: "index_type"
    value {
      type: DT_INT32
    }
  }
}
node {
  name: "rnn/MultiRNNCellZeroState/MultiRNNCellZeroState/ExpandDims_1/dim"
  op: "Const"
  attr {
    key: "_output_shapes"
    value {
      list {
        shape {
        }
      }
    }
  }
  attr {
    key: "dtype"
    value {
      type: DT_INT32
    }
  }
  attr {
    key: "value"
    value {
      tensor {
        dtype: DT_INT32
        tensor_shape {
        }
        int_val: 0
      }
    }
  }
}
node {
  name: "rnn/MultiRNNCellZeroState/MultiRNNCellZeroState/ExpandDims_1"
  op: "ExpandDims"
  input: "rnn/strided_slice"
  input: "rnn/MultiRNNCellZeroState/MultiRNNCellZeroState/ExpandDims_1/dim"
  attr {
    key: "T"
    value {
      type: DT_INT32
    }
  }
  attr {
    key: "Tdim"
    value {
      type: DT_INT32
    }
  }
  attr {
    key: "_output_shapes"
    value {
      list {
        shape {
          dim {
            size: 1
          }
        }
      }
    }
  }
}
node {
  name: "rnn/MultiRNNCellZeroState/MultiRNNCellZeroState/Const_1"
  op: "Const"
  attr {
    key: "_output_shapes"
    value {
      list {
        shape {
          dim {
            size: 1
          }
        }
      }
    }
  }
  attr {
    key: "dtype"
    value {
      type: DT_INT32
    }
  }
  attr {
    key: "value"
    value {
      tensor {
        dtype: DT_INT32
        tensor_shape {
          dim {
            size: 1
          }
        }
        int_val: 160
      }
    }
  }
}
node {
  name: "rnn/Shape_1"
  op: "Shape"
  input: "rnn/transpose"
  attr {
    key: "T"
    value {
      type: DT_FLOAT
    }
  }
  attr {
    key: "_output_shapes"
    value {
      list {
        shape {
          dim {
            size: 3
          }
        }
      }
    }
  }
  attr {
    key: "out_type"
    value {
      type: DT_INT32
    }
  }
}
node {
  name: "rnn/strided_slice_1/stack"
  op: "Const"
  attr {
    key: "_output_shapes"
    value {
      list {
        shape {
          dim {
            size: 1
          }
        }
      }
    }
  }
  attr {
    key: "dtype"
    value {
      type: DT_INT32
    }
  }
  attr {
    key: "value"
    value {
      tensor {
        dtype: DT_INT32
        tensor_shape {
          dim {
            size: 1
          }
        }
        int_val: 0
      }
    }
  }
}
node {
  name: "rnn/strided_slice_1/stack_1"
  op: "Const"
  attr {
    key: "_output_shapes"
    value {
      list {
        shape {
          dim {
            size: 1
          }
        }
      }
    }
  }
  attr {
    key: "dtype"
    value {
      type: DT_INT32
    }
  }
  attr {
    key: "value"
    value {
      tensor {
        dtype: DT_INT32
        tensor_shape {
          dim {
            size: 1
          }
        }
        int_val: 1
      }
    }
  }
}
node {
  name: "rnn/strided_slice_1/stack_2"
  op: "Const"
  attr {
    key: "_output_shapes"
    value {
      list {
        shape {
          dim {
            size: 1
          }
        }
      }
    }
  }
  attr {
    key: "dtype"
    value {
      type: DT_INT32
    }
  }
  attr {
    key: "value"
    value {
      tensor {
        dtype: DT_INT32
        tensor_shape {
          dim {
            size: 1
          }
        }
        int_val: 1
      }
    }
  }
}
node {
  name: "rnn/strided_slice_1"
  op: "StridedSlice"
  input: "rnn/Shape_1"
  input: "rnn/strided_slice_1/stack"
  input: "rnn/strided_slice_1/stack_1"
  input: "rnn/strided_slice_1/stack_2"
  attr {
    key: "Index"
    value {
      type: DT_INT32
    }
  }
  attr {
    key: "T"
    value {
      type: DT_INT32
    }
  }
  attr {
    key: "_output_shapes"
    value {
      list {
        shape {
        }
      }
    }
  }
  attr {
    key: "begin_mask"
    value {
      i: 0
    }
  }
  attr {
    key: "ellipsis_mask"
    value {
      i: 0
    }
  }
  attr {
    key: "end_mask"
    value {
      i: 0
    }
  }
  attr {
    key: "new_axis_mask"
    value {
      i: 0
    }
  }
  attr {
    key: "shrink_axis_mask"
    value {
      i: 1
    }
  }
}
node {
  name: "rnn/Shape_2"
  op: "Shape"
  input: "rnn/transpose"
  attr {
    key: "T"
    value {
      type: DT_FLOAT
    }
  }
  attr {
    key: "_output_shapes"
    value {
      list {
        shape {
          dim {
            size: 3
          }
        }
      }
    }
  }
  attr {
    key: "out_type"
    value {
      type: DT_INT32
    }
  }
}
node {
  name: "rnn/strided_slice_2/stack"
  op: "Const"
  attr {
    key: "_output_shapes"
    value {
      list {
        shape {
          dim {
            size: 1
          }
        }
      }
    }
  }
  attr {
    key: "dtype"
    value {
      type: DT_INT32
    }
  }
  attr {
    key: "value"
    value {
      tensor {
        dtype: DT_INT32
        tensor_shape {
          dim {
            size: 1
          }
        }
        int_val: 1
      }
    }
  }
}
node {
  name: "rnn/strided_slice_2/stack_1"
  op: "Const"
  attr {
    key: "_output_shapes"
    value {
      list {
        shape {
          dim {
            size: 1
          }
        }
      }
    }
  }
  attr {
    key: "dtype"
    value {
      type: DT_INT32
    }
  }
  attr {
    key: "value"
    value {
      tensor {
        dtype: DT_INT32
        tensor_shape {
          dim {
            size: 1
          }
        }
        int_val: 2
      }
    }
  }
}
node {
  name: "rnn/strided_slice_2/stack_2"
  op: "Const"
  attr {
    key: "_output_shapes"
    value {
      list {
        shape {
          dim {
            size: 1
          }
        }
      }
    }
  }
  attr {
    key: "dtype"
    value {
      type: DT_INT32
    }
  }
  attr {
    key: "value"
    value {
      tensor {
        dtype: DT_INT32
        tensor_shape {
          dim {
            size: 1
          }
        }
        int_val: 1
      }
    }
  }
}
node {
  name: "rnn/strided_slice_2"
  op: "StridedSlice"
  input: "rnn/Shape_2"
  input: "rnn/strided_slice_2/stack"
  input: "rnn/strided_slice_2/stack_1"
  input: "rnn/strided_slice_2/stack_2"
  attr {
    key: "Index"
    value {
      type: DT_INT32
    }
  }
  attr {
    key: "T"
    value {
      type: DT_INT32
    }
  }
  attr {
    key: "_output_shapes"
    value {
      list {
        shape {
        }
      }
    }
  }
  attr {
    key: "begin_mask"
    value {
      i: 0
    }
  }
  attr {
    key: "ellipsis_mask"
    value {
      i: 0
    }
  }
  attr {
    key: "end_mask"
    value {
      i: 0
    }
  }
  attr {
    key: "new_axis_mask"
    value {
      i: 0
    }
  }
  attr {
    key: "shrink_axis_mask"
    value {
      i: 1
    }
  }
}
node {
  name: "rnn/ExpandDims/dim"
  op: "Const"
  attr {
    key: "_output_shapes"
    value {
      list {
        shape {
        }
      }
    }
  }
  attr {
    key: "dtype"
    value {
      type: DT_INT32
    }
  }
  attr {
    key: "value"
    value {
      tensor {
        dtype: DT_INT32
        tensor_shape {
        }
        int_val: 0
      }
    }
  }
}
node {
  name: "rnn/ExpandDims"
  op: "ExpandDims"
  input: "rnn/strided_slice_2"
  input: "rnn/ExpandDims/dim"
  attr {
    key: "T"
    value {
      type: DT_INT32
    }
  }
  attr {
    key: "Tdim"
    value {
      type: DT_INT32
    }
  }
  attr {
    key: "_output_shapes"
    value {
      list {
        shape {
          dim {
            size: 1
          }
        }
      }
    }
  }
}
node {
  name: "rnn/Const"
  op: "Const"
  attr {
    key: "_output_shapes"
    value {
      list {
        shape {
          dim {
            size: 1
          }
        }
      }
    }
  }
  attr {
    key: "dtype"
    value {
      type: DT_INT32
    }
  }
  attr {
    key: "value"
    value {
      tensor {
        dtype: DT_INT32
        tensor_shape {
          dim {
            size: 1
          }
        }
        int_val: 80
      }
    }
  }
}
node {
  name: "rnn/concat_1/axis"
  op: "Const"
  attr {
    key: "_output_shapes"
    value {
      list {
        shape {
        }
      }
    }
  }
  attr {
    key: "dtype"
    value {
      type: DT_INT32
    }
  }
  attr {
    key: "value"
    value {
      tensor {
        dtype: DT_INT32
        tensor_shape {
        }
        int_val: 0
      }
    }
  }
}
node {
  name: "rnn/concat_1"
  op: "ConcatV2"
  input: "rnn/ExpandDims"
  input: "rnn/Const"
  input: "rnn/concat_1/axis"
  attr {
    key: "N"
    value {
      i: 2
    }
  }
  attr {
    key: "T"
    value {
      type: DT_INT32
    }
  }
  attr {
    key: "Tidx"
    value {
      type: DT_INT32
    }
  }
  attr {
    key: "_output_shapes"
    value {
      list {
        shape {
          dim {
            size: 2
          }
        }
      }
    }
  }
}
node {
  name: "rnn/zeros/Const"
  op: "Const"
  attr {
    key: "_output_shapes"
    value {
      list {
        shape {
        }
      }
    }
  }
  attr {
    key: "dtype"
    value {
      type: DT_FLOAT
    }
  }
  attr {
    key: "value"
    value {
      tensor {
        dtype: DT_FLOAT
        tensor_shape {
        }
        float_val: 0.0
      }
    }
  }
}
node {
  name: "rnn/zeros"
  op: "Fill"
  input: "rnn/concat_1"
  input: "rnn/zeros/Const"
  attr {
    key: "T"
    value {
      type: DT_FLOAT
    }
  }
  attr {
    key: "_output_shapes"
    value {
      list {
        shape {
          dim {
            size: -1
          }
          dim {
            size: 80
          }
        }
      }
    }
  }
  attr {
    key: "index_type"
    value {
      type: DT_INT32
    }
  }
}
node {
  name: "rnn/time"
  op: "Const"
  attr {
    key: "_output_shapes"
    value {
      list {
        shape {
        }
      }
    }
  }
  attr {
    key: "dtype"
    value {
      type: DT_INT32
    }
  }
  attr {
    key: "value"
    value {
      tensor {
        dtype: DT_INT32
        tensor_shape {
        }
        int_val: 0
      }
    }
  }
}
node {
  name: "rnn/TensorArray"
  op: "TensorArrayV3"
  input: "rnn/strided_slice_1"
  attr {
    key: "_output_shapes"
    value {
      list {
        shape {
          dim {
            size: 2
          }
        }
        shape {
        }
      }
    }
  }
  attr {
    key: "clear_after_read"
    value {
      b: true
    }
  }
  attr {
    key: "dtype"
    value {
      type: DT_FLOAT
    }
  }
  attr {
    key: "dynamic_size"
    value {
      b: false
    }
  }
  attr {
    key: "element_shape"
    value {
      shape {
        dim {
          size: -1
        }
        dim {
          size: 80
        }
      }
    }
  }
  attr {
    key: "identical_element_shapes"
    value {
      b: true
    }
  }
  attr {
    key: "tensor_array_name"
    value {
      s: "rnn/dynamic_rnn/output_0"
    }
  }
}
node {
  name: "rnn/TensorArray_1"
  op: "TensorArrayV3"
  input: "rnn/strided_slice_1"
  attr {
    key: "_output_shapes"
    value {
      list {
        shape {
          dim {
            size: 2
          }
        }
        shape {
        }
      }
    }
  }
  attr {
    key: "clear_after_read"
    value {
      b: true
    }
  }
  attr {
    key: "dtype"
    value {
      type: DT_FLOAT
    }
  }
  attr {
    key: "dynamic_size"
    value {
      b: false
    }
  }
  attr {
    key: "element_shape"
    value {
      shape {
        dim {
          size: -1
        }
        dim {
          size: 1
        }
      }
    }
  }
  attr {
    key: "identical_element_shapes"
    value {
      b: true
    }
  }
  attr {
    key: "tensor_array_name"
    value {
      s: "rnn/dynamic_rnn/input_0"
    }
  }
}
node {
  name: "rnn/TensorArrayUnstack/Shape"
  op: "Shape"
  input: "rnn/transpose"
  attr {
    key: "T"
    value {
      type: DT_FLOAT
    }
  }
  attr {
    key: "_output_shapes"
    value {
      list {
        shape {
          dim {
            size: 3
          }
        }
      }
    }
  }
  attr {
    key: "out_type"
    value {
      type: DT_INT32
    }
  }
}
node {
  name: "rnn/TensorArrayUnstack/strided_slice/stack"
  op: "Const"
  attr {
    key: "_output_shapes"
    value {
      list {
        shape {
          dim {
            size: 1
          }
        }
      }
    }
  }
  attr {
    key: "dtype"
    value {
      type: DT_INT32
    }
  }
  attr {
    key: "value"
    value {
      tensor {
        dtype: DT_INT32
        tensor_shape {
          dim {
            size: 1
          }
        }
        int_val: 0
      }
    }
  }
}
node {
  name: "rnn/TensorArrayUnstack/strided_slice/stack_1"
  op: "Const"
  attr {
    key: "_output_shapes"
    value {
      list {
        shape {
          dim {
            size: 1
          }
        }
      }
    }
  }
  attr {
    key: "dtype"
    value {
      type: DT_INT32
    }
  }
  attr {
    key: "value"
    value {
      tensor {
        dtype: DT_INT32
        tensor_shape {
          dim {
            size: 1
          }
        }
        int_val: 1
      }
    }
  }
}
node {
  name: "rnn/TensorArrayUnstack/strided_slice/stack_2"
  op: "Const"
  attr {
    key: "_output_shapes"
    value {
      list {
        shape {
          dim {
            size: 1
          }
        }
      }
    }
  }
  attr {
    key: "dtype"
    value {
      type: DT_INT32
    }
  }
  attr {
    key: "value"
    value {
      tensor {
        dtype: DT_INT32
        tensor_shape {
          dim {
            size: 1
          }
        }
        int_val: 1
      }
    }
  }
}
node {
  name: "rnn/TensorArrayUnstack/strided_slice"
  op: "StridedSlice"
  input: "rnn/TensorArrayUnstack/Shape"
  input: "rnn/TensorArrayUnstack/strided_slice/stack"
  input: "rnn/TensorArrayUnstack/strided_slice/stack_1"
  input: "rnn/TensorArrayUnstack/strided_slice/stack_2"
  attr {
    key: "Index"
    value {
      type: DT_INT32
    }
  }
  attr {
    key: "T"
    value {
      type: DT_INT32
    }
  }
  attr {
    key: "_output_shapes"
    value {
      list {
        shape {
        }
      }
    }
  }
  attr {
    key: "begin_mask"
    value {
      i: 0
    }
  }
  attr {
    key: "ellipsis_mask"
    value {
      i: 0
    }
  }
  attr {
    key: "end_mask"
    value {
      i: 0
    }
  }
  attr {
    key: "new_axis_mask"
    value {
      i: 0
    }
  }
  attr {
    key: "shrink_axis_mask"
    value {
      i: 1
    }
  }
}
node {
  name: "rnn/TensorArrayUnstack/range/start"
  op: "Const"
  attr {
    key: "_output_shapes"
    value {
      list {
        shape {
        }
      }
    }
  }
  attr {
    key: "dtype"
    value {
      type: DT_INT32
    }
  }
  attr {
    key: "value"
    value {
      tensor {
        dtype: DT_INT32
        tensor_shape {
        }
        int_val: 0
      }
    }
  }
}
node {
  name: "rnn/TensorArrayUnstack/range/delta"
  op: "Const"
  attr {
    key: "_output_shapes"
    value {
      list {
        shape {
        }
      }
    }
  }
  attr {
    key: "dtype"
    value {
      type: DT_INT32
    }
  }
  attr {
    key: "value"
    value {
      tensor {
        dtype: DT_INT32
        tensor_shape {
        }
        int_val: 1
      }
    }
  }
}
node {
  name: "rnn/TensorArrayUnstack/range"
  op: "Range"
  input: "rnn/TensorArrayUnstack/range/start"
  input: "rnn/TensorArrayUnstack/strided_slice"
  input: "rnn/TensorArrayUnstack/range/delta"
  attr {
    key: "Tidx"
    value {
      type: DT_INT32
    }
  }
  attr {
    key: "_output_shapes"
    value {
      list {
        shape {
          dim {
            size: -1
          }
        }
      }
    }
  }
}
node {
  name: "rnn/TensorArrayUnstack/TensorArrayScatter/TensorArrayScatterV3"
  op: "TensorArrayScatterV3"
  input: "rnn/TensorArray_1"
  input: "rnn/TensorArrayUnstack/range"
  input: "rnn/transpose"
  input: "rnn/TensorArray_1:1"
  attr {
    key: "T"
    value {
      type: DT_FLOAT
    }
  }
  attr {
    key: "_class"
    value {
      list {
        s: "loc:@rnn/transpose"
      }
    }
  }
  attr {
    key: "_output_shapes"
    value {
      list {
        shape {
        }
      }
    }
  }
}
node {
  name: "rnn/Maximum/x"
  op: "Const"
  attr {
    key: "_output_shapes"
    value {
      list {
        shape {
        }
      }
    }
  }
  attr {
    key: "dtype"
    value {
      type: DT_INT32
    }
  }
  attr {
    key: "value"
    value {
      tensor {
        dtype: DT_INT32
        tensor_shape {
        }
        int_val: 1
      }
    }
  }
}
node {
  name: "rnn/Maximum"
  op: "Maximum"
  input: "rnn/Maximum/x"
  input: "rnn/strided_slice_1"
  attr {
    key: "T"
    value {
      type: DT_INT32
    }
  }
  attr {
    key: "_output_shapes"
    value {
      list {
        shape {
        }
      }
    }
  }
}
node {
  name: "rnn/Minimum"
  op: "Minimum"
  input: "rnn/strided_slice_1"
  input: "rnn/Maximum"
  attr {
    key: "T"
    value {
      type: DT_INT32
    }
  }
  attr {
    key: "_output_shapes"
    value {
      list {
        shape {
        }
      }
    }
  }
}
node {
  name: "rnn/while/iteration_counter"
  op: "Const"
  attr {
    key: "_output_shapes"
    value {
      list {
        shape {
        }
      }
    }
  }
  attr {
    key: "dtype"
    value {
      type: DT_INT32
    }
  }
  attr {
    key: "value"
    value {
      tensor {
        dtype: DT_INT32
        tensor_shape {
        }
        int_val: 0
      }
    }
  }
}
node {
  name: "rnn/while/Enter"
  op: "Enter"
  input: "rnn/while/iteration_counter"
  attr {
    key: "T"
    value {
      type: DT_INT32
    }
  }
  attr {
    key: "_output_shapes"
    value {
      list {
        shape {
        }
      }
    }
  }
  attr {
    key: "frame_name"
    value {
      s: "rnn/while/while_context"
    }
  }
  attr {
    key: "is_constant"
    value {
      b: false
    }
  }
  attr {
    key: "parallel_iterations"
    value {
      i: 32
    }
  }
}
node {
  name: "rnn/while/Enter_1"
  op: "Enter"
  input: "rnn/time"
  attr {
    key: "T"
    value {
      type: DT_INT32
    }
  }
  attr {
    key: "_output_shapes"
    value {
      list {
        shape {
        }
      }
    }
  }
  attr {
    key: "frame_name"
    value {
      s: "rnn/while/while_context"
    }
  }
  attr {
    key: "is_constant"
    value {
      b: false
    }
  }
  attr {
    key: "parallel_iterations"
    value {
      i: 32
    }
  }
}
node {
  name: "rnn/while/Enter_2"
  op: "Enter"
  input: "rnn/TensorArray:1"
  attr {
    key: "T"
    value {
      type: DT_FLOAT
    }
  }
  attr {
    key: "_output_shapes"
    value {
      list {
        shape {
        }
      }
    }
  }
  attr {
    key: "frame_name"
    value {
      s: "rnn/while/while_context"
    }
  }
  attr {
    key: "is_constant"
    value {
      b: false
    }
  }
  attr {
    key: "parallel_iterations"
    value {
      i: 32
    }
  }
}
node {
  name: "rnn/while/Enter_3"
  op: "Enter"
  input: "rnn/MultiRNNCellZeroState/MultiRNNCellZeroState/zeros"
  attr {
    key: "T"
    value {
      type: DT_FLOAT
    }
  }
  attr {
    key: "_output_shapes"
    value {
      list {
        shape {
          dim {
            size: -1
          }
          dim {
            size: 160
          }
        }
      }
    }
  }
  attr {
    key: "frame_name"
    value {
      s: "rnn/while/while_context"
    }
  }
  attr {
    key: "is_constant"
    value {
      b: false
    }
  }
  attr {
    key: "parallel_iterations"
    value {
      i: 32
    }
  }
}
node {
  name: "rnn/while/Merge"
  op: "Merge"
  input: "rnn/while/Enter"
  input: "rnn/while/NextIteration"
  attr {
    key: "N"
    value {
      i: 2
    }
  }
  attr {
    key: "T"
    value {
      type: DT_INT32
    }
  }
  attr {
    key: "_output_shapes"
    value {
      list {
        shape {
        }
        shape {
        }
      }
    }
  }
}
node {
  name: "rnn/while/Merge_1"
  op: "Merge"
  input: "rnn/while/Enter_1"
  input: "rnn/while/NextIteration_1"
  attr {
    key: "N"
    value {
      i: 2
    }
  }
  attr {
    key: "T"
    value {
      type: DT_INT32
    }
  }
  attr {
    key: "_output_shapes"
    value {
      list {
        shape {
        }
        shape {
        }
      }
    }
  }
}
node {
  name: "rnn/while/Merge_2"
  op: "Merge"
  input: "rnn/while/Enter_2"
  input: "rnn/while/NextIteration_2"
  attr {
    key: "N"
    value {
      i: 2
    }
  }
  attr {
    key: "T"
    value {
      type: DT_FLOAT
    }
  }
  attr {
    key: "_output_shapes"
    value {
      list {
        shape {
        }
        shape {
        }
      }
    }
  }
}
node {
  name: "rnn/while/Merge_3"
  op: "Merge"
  input: "rnn/while/Enter_3"
  input: "rnn/while/NextIteration_3"
  attr {
    key: "N"
    value {
      i: 2
    }
  }
  attr {
    key: "T"
    value {
      type: DT_FLOAT
    }
  }
  attr {
    key: "_output_shapes"
    value {
      list {
        shape {
          dim {
            size: -1
          }
          dim {
            size: 160
          }
        }
        shape {
        }
      }
    }
  }
}
node {
  name: "rnn/while/Less"
  op: "Less"
  input: "rnn/while/Merge"
  input: "rnn/while/Less/Enter"
  attr {
    key: "T"
    value {
      type: DT_INT32
    }
  }
  attr {
    key: "_output_shapes"
    value {
      list {
        shape {
        }
      }
    }
  }
}
node {
  name: "rnn/while/Less/Enter"
  op: "Enter"
  input: "rnn/strided_slice_1"
  attr {
    key: "T"
    value {
      type: DT_INT32
    }
  }
  attr {
    key: "_output_shapes"
    value {
      list {
        shape {
        }
      }
    }
  }
  attr {
    key: "frame_name"
    value {
      s: "rnn/while/while_context"
    }
  }
  attr {
    key: "is_constant"
    value {
      b: true
    }
  }
  attr {
    key: "parallel_iterations"
    value {
      i: 32
    }
  }
}
node {
  name: "rnn/while/Less_1"
  op: "Less"
  input: "rnn/while/Merge_1"
  input: "rnn/while/Less_1/Enter"
  attr {
    key: "T"
    value {
      type: DT_INT32
    }
  }
  attr {
    key: "_output_shapes"
    value {
      list {
        shape {
        }
      }
    }
  }
}
node {
  name: "rnn/while/Less_1/Enter"
  op: "Enter"
  input: "rnn/Minimum"
  attr {
    key: "T"
    value {
      type: DT_INT32
    }
  }
  attr {
    key: "_output_shapes"
    value {
      list {
        shape {
        }
      }
    }
  }
  attr {
    key: "frame_name"
    value {
      s: "rnn/while/while_context"
    }
  }
  attr {
    key: "is_constant"
    value {
      b: true
    }
  }
  attr {
    key: "parallel_iterations"
    value {
      i: 32
    }
  }
}
node {
  name: "rnn/while/LogicalAnd"
  op: "LogicalAnd"
  input: "rnn/while/Less"
  input: "rnn/while/Less_1"
  attr {
    key: "_output_shapes"
    value {
      list {
        shape {
        }
      }
    }
  }
}
node {
  name: "rnn/while/LoopCond"
  op: "LoopCond"
  input: "rnn/while/LogicalAnd"
  attr {
    key: "_output_shapes"
    value {
      list {
        shape {
        }
      }
    }
  }
}
node {
  name: "rnn/while/Switch"
  op: "Switch"
  input: "rnn/while/Merge"
  input: "rnn/while/LoopCond"
  attr {
    key: "T"
    value {
      type: DT_INT32
    }
  }
  attr {
    key: "_class"
    value {
      list {
        s: "loc:@rnn/while/Merge"
      }
    }
  }
  attr {
    key: "_output_shapes"
    value {
      list {
        shape {
        }
        shape {
        }
      }
    }
  }
}
node {
  name: "rnn/while/Switch_1"
  op: "Switch"
  input: "rnn/while/Merge_1"
  input: "rnn/while/LoopCond"
  attr {
    key: "T"
    value {
      type: DT_INT32
    }
  }
  attr {
    key: "_class"
    value {
      list {
        s: "loc:@rnn/while/Merge_1"
      }
    }
  }
  attr {
    key: "_output_shapes"
    value {
      list {
        shape {
        }
        shape {
        }
      }
    }
  }
}
node {
  name: "rnn/while/Switch_2"
  op: "Switch"
  input: "rnn/while/Merge_2"
  input: "rnn/while/LoopCond"
  attr {
    key: "T"
    value {
      type: DT_FLOAT
    }
  }
  attr {
    key: "_class"
    value {
      list {
        s: "loc:@rnn/while/Merge_2"
      }
    }
  }
  attr {
    key: "_output_shapes"
    value {
      list {
        shape {
        }
        shape {
        }
      }
    }
  }
}
node {
  name: "rnn/while/Switch_3"
  op: "Switch"
  input: "rnn/while/Merge_3"
  input: "rnn/while/LoopCond"
  attr {
    key: "T"
    value {
      type: DT_FLOAT
    }
  }
  attr {
    key: "_class"
    value {
      list {
        s: "loc:@rnn/while/Merge_3"
      }
    }
  }
  attr {
    key: "_output_shapes"
    value {
      list {
        shape {
          dim {
            size: -1
          }
          dim {
            size: 160
          }
        }
        shape {
          dim {
            size: -1
          }
          dim {
            size: 160
          }
        }
      }
    }
  }
}
node {
  name: "rnn/while/Identity"
  op: "Identity"
  input: "rnn/while/Switch:1"
  attr {
    key: "T"
    value {
      type: DT_INT32
    }
  }
  attr {
    key: "_output_shapes"
    value {
      list {
        shape {
        }
      }
    }
  }
}
node {
  name: "rnn/while/Identity_1"
  op: "Identity"
  input: "rnn/while/Switch_1:1"
  attr {
    key: "T"
    value {
      type: DT_INT32
    }
  }
  attr {
    key: "_output_shapes"
    value {
      list {
        shape {
        }
      }
    }
  }
}
node {
  name: "rnn/while/Identity_2"
  op: "Identity"
  input: "rnn/while/Switch_2:1"
  attr {
    key: "T"
    value {
      type: DT_FLOAT
    }
  }
  attr {
    key: "_output_shapes"
    value {
      list {
        shape {
        }
      }
    }
  }
}
node {
  name: "rnn/while/Identity_3"
  op: "Identity"
  input: "rnn/while/Switch_3:1"
  attr {
    key: "T"
    value {
      type: DT_FLOAT
    }
  }
  attr {
    key: "_output_shapes"
    value {
      list {
        shape {
          dim {
            size: -1
          }
          dim {
            size: 160
          }
        }
      }
    }
  }
}
node {
  name: "rnn/while/add/y"
  op: "Const"
  input: "^rnn/while/Identity"
  attr {
    key: "_output_shapes"
    value {
      list {
        shape {
        }
      }
    }
  }
  attr {
    key: "dtype"
    value {
      type: DT_INT32
    }
  }
  attr {
    key: "value"
    value {
      tensor {
        dtype: DT_INT32
        tensor_shape {
        }
        int_val: 1
      }
    }
  }
}
node {
  name: "rnn/while/add"
  op: "Add"
  input: "rnn/while/Identity"
  input: "rnn/while/add/y"
  attr {
    key: "T"
    value {
      type: DT_INT32
    }
  }
  attr {
    key: "_output_shapes"
    value {
      list {
        shape {
        }
      }
    }
  }
}
node {
  name: "rnn/while/TensorArrayReadV3"
  op: "TensorArrayReadV3"
  input: "rnn/while/TensorArrayReadV3/Enter"
  input: "rnn/while/Identity_1"
  input: "rnn/while/TensorArrayReadV3/Enter_1"
  attr {
    key: "_output_shapes"
    value {
      list {
        shape {
          dim {
            size: -1
          }
          dim {
            size: 1
          }
        }
      }
    }
  }
  attr {
    key: "dtype"
    value {
      type: DT_FLOAT
    }
  }
}
node {
  name: "rnn/while/TensorArrayReadV3/Enter"
  op: "Enter"
  input: "rnn/TensorArray_1"
  attr {
    key: "T"
    value {
      type: DT_RESOURCE
    }
  }
  attr {
    key: "_output_shapes"
    value {
      list {
        shape {
          dim {
            size: 2
          }
        }
      }
    }
  }
  attr {
    key: "frame_name"
    value {
      s: "rnn/while/while_context"
    }
  }
  attr {
    key: "is_constant"
    value {
      b: true
    }
  }
  attr {
    key: "parallel_iterations"
    value {
      i: 32
    }
  }
}
node {
  name: "rnn/while/TensorArrayReadV3/Enter_1"
  op: "Enter"
  input: "rnn/TensorArrayUnstack/TensorArrayScatter/TensorArrayScatterV3"
  attr {
    key: "T"
    value {
      type: DT_FLOAT
    }
  }
  attr {
    key: "_output_shapes"
    value {
      list {
        shape {
        }
      }
    }
  }
  attr {
    key: "frame_name"
    value {
      s: "rnn/while/while_context"
    }
  }
  attr {
    key: "is_constant"
    value {
      b: true
    }
  }
  attr {
    key: "parallel_iterations"
    value {
      i: 32
    }
  }
}
node {
  name: "rnn/while/rnn/multi_rnn_cell/cell_0/Slice/begin"
  op: "Const"
  input: "^rnn/while/Identity"
  attr {
    key: "_output_shapes"
    value {
      list {
        shape {
          dim {
            size: 2
          }
        }
      }
    }
  }
  attr {
    key: "dtype"
    value {
      type: DT_INT32
    }
  }
  attr {
    key: "value"
    value {
      tensor {
        dtype: DT_INT32
        tensor_shape {
          dim {
            size: 2
          }
        }
        tensor_content: "\000\000\000\000\000\000\000\000"
      }
    }
  }
}
node {
  name: "rnn/while/rnn/multi_rnn_cell/cell_0/Slice/size"
  op: "Const"
  input: "^rnn/while/Identity"
  attr {
    key: "_output_shapes"
    value {
      list {
        shape {
          dim {
            size: 2
          }
        }
      }
    }
  }
  attr {
    key: "dtype"
    value {
      type: DT_INT32
    }
  }
  attr {
    key: "value"
    value {
      tensor {
        dtype: DT_INT32
        tensor_shape {
          dim {
            size: 2
          }
        }
        tensor_content: "\377\377\377\377P\000\000\000"
      }
    }
  }
}
node {
  name: "rnn/while/rnn/multi_rnn_cell/cell_0/Slice"
  op: "Slice"
  input: "rnn/while/Identity_3"
  input: "rnn/while/rnn/multi_rnn_cell/cell_0/Slice/begin"
  input: "rnn/while/rnn/multi_rnn_cell/cell_0/Slice/size"
  attr {
    key: "Index"
    value {
      type: DT_INT32
    }
  }
  attr {
    key: "T"
    value {
      type: DT_FLOAT
    }
  }
  attr {
    key: "_output_shapes"
    value {
      list {
        shape {
          dim {
            size: -1
          }
          dim {
            size: 80
          }
        }
      }
    }
  }
}
node {
  name: "rnn/multi_rnn_cell/cell_0/gru_cell/gates/kernel/Initializer/random_uniform/shape"
  op: "Const"
  attr {
    key: "_class"
    value {
      list {
        s: "loc:@rnn/multi_rnn_cell/cell_0/gru_cell/gates/kernel"
      }
    }
  }
  attr {
    key: "_output_shapes"
    value {
      list {
        shape {
          dim {
            size: 2
          }
        }
      }
    }
  }
  attr {
    key: "dtype"
    value {
      type: DT_INT32
    }
  }
  attr {
    key: "value"
    value {
      tensor {
        dtype: DT_INT32
        tensor_shape {
          dim {
            size: 2
          }
        }
        tensor_content: "Q\000\000\000\240\000\000\000"
      }
    }
  }
}
node {
  name: "rnn/multi_rnn_cell/cell_0/gru_cell/gates/kernel/Initializer/random_uniform/min"
  op: "Const"
  attr {
    key: "_class"
    value {
      list {
        s: "loc:@rnn/multi_rnn_cell/cell_0/gru_cell/gates/kernel"
      }
    }
  }
  attr {
    key: "_output_shapes"
    value {
      list {
        shape {
        }
      }
    }
  }
  attr {
    key: "dtype"
    value {
      type: DT_FLOAT
    }
  }
  attr {
    key: "value"
    value {
      tensor {
        dtype: DT_FLOAT
        tensor_shape {
        }
        float_val: -0.15778550505638123
      }
    }
  }
}
node {
  name: "rnn/multi_rnn_cell/cell_0/gru_cell/gates/kernel/Initializer/random_uniform/max"
  op: "Const"
  attr {
    key: "_class"
    value {
      list {
        s: "loc:@rnn/multi_rnn_cell/cell_0/gru_cell/gates/kernel"
      }
    }
  }
  attr {
    key: "_output_shapes"
    value {
      list {
        shape {
        }
      }
    }
  }
  attr {
    key: "dtype"
    value {
      type: DT_FLOAT
    }
  }
  attr {
    key: "value"
    value {
      tensor {
        dtype: DT_FLOAT
        tensor_shape {
        }
        float_val: 0.15778550505638123
      }
    }
  }
}
node {
  name: "rnn/multi_rnn_cell/cell_0/gru_cell/gates/kernel/Initializer/random_uniform/RandomUniform"
  op: "RandomUniform"
  input: "rnn/multi_rnn_cell/cell_0/gru_cell/gates/kernel/Initializer/random_uniform/shape"
  attr {
    key: "T"
    value {
      type: DT_INT32
    }
  }
  attr {
    key: "_class"
    value {
      list {
        s: "loc:@rnn/multi_rnn_cell/cell_0/gru_cell/gates/kernel"
      }
    }
  }
  attr {
    key: "_output_shapes"
    value {
      list {
        shape {
          dim {
            size: 81
          }
          dim {
            size: 160
          }
        }
      }
    }
  }
  attr {
    key: "dtype"
    value {
      type: DT_FLOAT
    }
  }
  attr {
    key: "seed"
    value {
      i: 0
    }
  }
  attr {
    key: "seed2"
    value {
      i: 0
    }
  }
}
node {
  name: "rnn/multi_rnn_cell/cell_0/gru_cell/gates/kernel/Initializer/random_uniform/sub"
  op: "Sub"
  input: "rnn/multi_rnn_cell/cell_0/gru_cell/gates/kernel/Initializer/random_uniform/max"
  input: "rnn/multi_rnn_cell/cell_0/gru_cell/gates/kernel/Initializer/random_uniform/min"
  attr {
    key: "T"
    value {
      type: DT_FLOAT
    }
  }
  attr {
    key: "_class"
    value {
      list {
        s: "loc:@rnn/multi_rnn_cell/cell_0/gru_cell/gates/kernel"
      }
    }
  }
  attr {
    key: "_output_shapes"
    value {
      list {
        shape {
        }
      }
    }
  }
}
node {
  name: "rnn/multi_rnn_cell/cell_0/gru_cell/gates/kernel/Initializer/random_uniform/mul"
  op: "Mul"
  input: "rnn/multi_rnn_cell/cell_0/gru_cell/gates/kernel/Initializer/random_uniform/RandomUniform"
  input: "rnn/multi_rnn_cell/cell_0/gru_cell/gates/kernel/Initializer/random_uniform/sub"
  attr {
    key: "T"
    value {
      type: DT_FLOAT
    }
  }
  attr {
    key: "_class"
    value {
      list {
        s: "loc:@rnn/multi_rnn_cell/cell_0/gru_cell/gates/kernel"
      }
    }
  }
  attr {
    key: "_output_shapes"
    value {
      list {
        shape {
          dim {
            size: 81
          }
          dim {
            size: 160
          }
        }
      }
    }
  }
}
node {
  name: "rnn/multi_rnn_cell/cell_0/gru_cell/gates/kernel/Initializer/random_uniform"
  op: "Add"
  input: "rnn/multi_rnn_cell/cell_0/gru_cell/gates/kernel/Initializer/random_uniform/mul"
  input: "rnn/multi_rnn_cell/cell_0/gru_cell/gates/kernel/Initializer/random_uniform/min"
  attr {
    key: "T"
    value {
      type: DT_FLOAT
    }
  }
  attr {
    key: "_class"
    value {
      list {
        s: "loc:@rnn/multi_rnn_cell/cell_0/gru_cell/gates/kernel"
      }
    }
  }
  attr {
    key: "_output_shapes"
    value {
      list {
        shape {
          dim {
            size: 81
          }
          dim {
            size: 160
          }
        }
      }
    }
  }
}
node {
  name: "rnn/multi_rnn_cell/cell_0/gru_cell/gates/kernel"
  op: "VariableV2"
  attr {
    key: "_class"
    value {
      list {
        s: "loc:@rnn/multi_rnn_cell/cell_0/gru_cell/gates/kernel"
      }
    }
  }
  attr {
    key: "_output_shapes"
    value {
      list {
        shape {
          dim {
            size: 81
          }
          dim {
            size: 160
          }
        }
      }
    }
  }
  attr {
    key: "container"
    value {
      s: ""
    }
  }
  attr {
    key: "dtype"
    value {
      type: DT_FLOAT
    }
  }
  attr {
    key: "shape"
    value {
      shape {
        dim {
          size: 81
        }
        dim {
          size: 160
        }
      }
    }
  }
  attr {
    key: "shared_name"
    value {
      s: ""
    }
  }
}
node {
  name: "rnn/multi_rnn_cell/cell_0/gru_cell/gates/kernel/Assign"
  op: "Assign"
  input: "rnn/multi_rnn_cell/cell_0/gru_cell/gates/kernel"
  input: "rnn/multi_rnn_cell/cell_0/gru_cell/gates/kernel/Initializer/random_uniform"
  attr {
    key: "T"
    value {
      type: DT_FLOAT
    }
  }
  attr {
    key: "_class"
    value {
      list {
        s: "loc:@rnn/multi_rnn_cell/cell_0/gru_cell/gates/kernel"
      }
    }
  }
  attr {
    key: "_output_shapes"
    value {
      list {
        shape {
          dim {
            size: 81
          }
          dim {
            size: 160
          }
        }
      }
    }
  }
  attr {
    key: "use_locking"
    value {
      b: true
    }
  }
  attr {
    key: "validate_shape"
    value {
      b: true
    }
  }
}
node {
  name: "rnn/multi_rnn_cell/cell_0/gru_cell/gates/kernel/read"
  op: "Identity"
  input: "rnn/multi_rnn_cell/cell_0/gru_cell/gates/kernel"
  attr {
    key: "T"
    value {
      type: DT_FLOAT
    }
  }
  attr {
    key: "_output_shapes"
    value {
      list {
        shape {
          dim {
            size: 81
          }
          dim {
            size: 160
          }
        }
      }
    }
  }
}
node {
  name: "rnn/multi_rnn_cell/cell_0/gru_cell/gates/bias/Initializer/Const"
  op: "Const"
  attr {
    key: "_class"
    value {
      list {
        s: "loc:@rnn/multi_rnn_cell/cell_0/gru_cell/gates/bias"
      }
    }
  }
  attr {
    key: "_output_shapes"
    value {
      list {
        shape {
          dim {
            size: 160
          }
        }
      }
    }
  }
  attr {
    key: "dtype"
    value {
      type: DT_FLOAT
    }
  }
  attr {
    key: "value"
    value {
      tensor {
        dtype: DT_FLOAT
        tensor_shape {
          dim {
            size: 160
          }
        }
        float_val: 1.0
      }
    }
  }
}
node {
  name: "rnn/multi_rnn_cell/cell_0/gru_cell/gates/bias"
  op: "VariableV2"
  attr {
    key: "_class"
    value {
      list {
        s: "loc:@rnn/multi_rnn_cell/cell_0/gru_cell/gates/bias"
      }
    }
  }
  attr {
    key: "_output_shapes"
    value {
      list {
        shape {
          dim {
            size: 160
          }
        }
      }
    }
  }
  attr {
    key: "container"
    value {
      s: ""
    }
  }
  attr {
    key: "dtype"
    value {
      type: DT_FLOAT
    }
  }
  attr {
    key: "shape"
    value {
      shape {
        dim {
          size: 160
        }
      }
    }
  }
  attr {
    key: "shared_name"
    value {
      s: ""
    }
  }
}
node {
  name: "rnn/multi_rnn_cell/cell_0/gru_cell/gates/bias/Assign"
  op: "Assign"
  input: "rnn/multi_rnn_cell/cell_0/gru_cell/gates/bias"
  input: "rnn/multi_rnn_cell/cell_0/gru_cell/gates/bias/Initializer/Const"
  attr {
    key: "T"
    value {
      type: DT_FLOAT
    }
  }
  attr {
    key: "_class"
    value {
      list {
        s: "loc:@rnn/multi_rnn_cell/cell_0/gru_cell/gates/bias"
      }
    }
  }
  attr {
    key: "_output_shapes"
    value {
      list {
        shape {
          dim {
            size: 160
          }
        }
      }
    }
  }
  attr {
    key: "use_locking"
    value {
      b: true
    }
  }
  attr {
    key: "validate_shape"
    value {
      b: true
    }
  }
}
node {
  name: "rnn/multi_rnn_cell/cell_0/gru_cell/gates/bias/read"
  op: "Identity"
  input: "rnn/multi_rnn_cell/cell_0/gru_cell/gates/bias"
  attr {
    key: "T"
    value {
      type: DT_FLOAT
    }
  }
  attr {
    key: "_output_shapes"
    value {
      list {
        shape {
          dim {
            size: 160
          }
        }
      }
    }
  }
}
node {
  name: "rnn/multi_rnn_cell/cell_0/gru_cell/candidate/kernel/Initializer/random_uniform/shape"
  op: "Const"
  attr {
    key: "_class"
    value {
      list {
        s: "loc:@rnn/multi_rnn_cell/cell_0/gru_cell/candidate/kernel"
      }
    }
  }
  attr {
    key: "_output_shapes"
    value {
      list {
        shape {
          dim {
            size: 2
          }
        }
      }
    }
  }
  attr {
    key: "dtype"
    value {
      type: DT_INT32
    }
  }
  attr {
    key: "value"
    value {
      tensor {
        dtype: DT_INT32
        tensor_shape {
          dim {
            size: 2
          }
        }
        tensor_content: "Q\000\000\000P\000\000\000"
      }
    }
  }
}
node {
  name: "rnn/multi_rnn_cell/cell_0/gru_cell/candidate/kernel/Initializer/random_uniform/min"
  op: "Const"
  attr {
    key: "_class"
    value {
      list {
        s: "loc:@rnn/multi_rnn_cell/cell_0/gru_cell/candidate/kernel"
      }
    }
  }
  attr {
    key: "_output_shapes"
    value {
      list {
        shape {
        }
      }
    }
  }
  attr {
    key: "dtype"
    value {
      type: DT_FLOAT
    }
  }
  attr {
    key: "value"
    value {
      tensor {
        dtype: DT_FLOAT
        tensor_shape {
        }
        float_val: -0.19304683804512024
      }
    }
  }
}
node {
  name: "rnn/multi_rnn_cell/cell_0/gru_cell/candidate/kernel/Initializer/random_uniform/max"
  op: "Const"
  attr {
    key: "_class"
    value {
      list {
        s: "loc:@rnn/multi_rnn_cell/cell_0/gru_cell/candidate/kernel"
      }
    }
  }
  attr {
    key: "_output_shapes"
    value {
      list {
        shape {
        }
      }
    }
  }
  attr {
    key: "dtype"
    value {
      type: DT_FLOAT
    }
  }
  attr {
    key: "value"
    value {
      tensor {
        dtype: DT_FLOAT
        tensor_shape {
        }
        float_val: 0.19304683804512024
      }
    }
  }
}
node {
  name: "rnn/multi_rnn_cell/cell_0/gru_cell/candidate/kernel/Initializer/random_uniform/RandomUniform"
  op: "RandomUniform"
  input: "rnn/multi_rnn_cell/cell_0/gru_cell/candidate/kernel/Initializer/random_uniform/shape"
  attr {
    key: "T"
    value {
      type: DT_INT32
    }
  }
  attr {
    key: "_class"
    value {
      list {
        s: "loc:@rnn/multi_rnn_cell/cell_0/gru_cell/candidate/kernel"
      }
    }
  }
  attr {
    key: "_output_shapes"
    value {
      list {
        shape {
          dim {
            size: 81
          }
          dim {
            size: 80
          }
        }
      }
    }
  }
  attr {
    key: "dtype"
    value {
      type: DT_FLOAT
    }
  }
  attr {
    key: "seed"
    value {
      i: 0
    }
  }
  attr {
    key: "seed2"
    value {
      i: 0
    }
  }
}
node {
  name: "rnn/multi_rnn_cell/cell_0/gru_cell/candidate/kernel/Initializer/random_uniform/sub"
  op: "Sub"
  input: "rnn/multi_rnn_cell/cell_0/gru_cell/candidate/kernel/Initializer/random_uniform/max"
  input: "rnn/multi_rnn_cell/cell_0/gru_cell/candidate/kernel/Initializer/random_uniform/min"
  attr {
    key: "T"
    value {
      type: DT_FLOAT
    }
  }
  attr {
    key: "_class"
    value {
      list {
        s: "loc:@rnn/multi_rnn_cell/cell_0/gru_cell/candidate/kernel"
      }
    }
  }
  attr {
    key: "_output_shapes"
    value {
      list {
        shape {
        }
      }
    }
  }
}
node {
  name: "rnn/multi_rnn_cell/cell_0/gru_cell/candidate/kernel/Initializer/random_uniform/mul"
  op: "Mul"
  input: "rnn/multi_rnn_cell/cell_0/gru_cell/candidate/kernel/Initializer/random_uniform/RandomUniform"
  input: "rnn/multi_rnn_cell/cell_0/gru_cell/candidate/kernel/Initializer/random_uniform/sub"
  attr {
    key: "T"
    value {
      type: DT_FLOAT
    }
  }
  attr {
    key: "_class"
    value {
      list {
        s: "loc:@rnn/multi_rnn_cell/cell_0/gru_cell/candidate/kernel"
      }
    }
  }
  attr {
    key: "_output_shapes"
    value {
      list {
        shape {
          dim {
            size: 81
          }
          dim {
            size: 80
          }
        }
      }
    }
  }
}
node {
  name: "rnn/multi_rnn_cell/cell_0/gru_cell/candidate/kernel/Initializer/random_uniform"
  op: "Add"
  input: "rnn/multi_rnn_cell/cell_0/gru_cell/candidate/kernel/Initializer/random_uniform/mul"
  input: "rnn/multi_rnn_cell/cell_0/gru_cell/candidate/kernel/Initializer/random_uniform/min"
  attr {
    key: "T"
    value {
      type: DT_FLOAT
    }
  }
  attr {
    key: "_class"
    value {
      list {
        s: "loc:@rnn/multi_rnn_cell/cell_0/gru_cell/candidate/kernel"
      }
    }
  }
  attr {
    key: "_output_shapes"
    value {
      list {
        shape {
          dim {
            size: 81
          }
          dim {
            size: 80
          }
        }
      }
    }
  }
}
node {
  name: "rnn/multi_rnn_cell/cell_0/gru_cell/candidate/kernel"
  op: "VariableV2"
  attr {
    key: "_class"
    value {
      list {
        s: "loc:@rnn/multi_rnn_cell/cell_0/gru_cell/candidate/kernel"
      }
    }
  }
  attr {
    key: "_output_shapes"
    value {
      list {
        shape {
          dim {
            size: 81
          }
          dim {
            size: 80
          }
        }
      }
    }
  }
  attr {
    key: "container"
    value {
      s: ""
    }
  }
  attr {
    key: "dtype"
    value {
      type: DT_FLOAT
    }
  }
  attr {
    key: "shape"
    value {
      shape {
        dim {
          size: 81
        }
        dim {
          size: 80
        }
      }
    }
  }
  attr {
    key: "shared_name"
    value {
      s: ""
    }
  }
}
node {
  name: "rnn/multi_rnn_cell/cell_0/gru_cell/candidate/kernel/Assign"
  op: "Assign"
  input: "rnn/multi_rnn_cell/cell_0/gru_cell/candidate/kernel"
  input: "rnn/multi_rnn_cell/cell_0/gru_cell/candidate/kernel/Initializer/random_uniform"
  attr {
    key: "T"
    value {
      type: DT_FLOAT
    }
  }
  attr {
    key: "_class"
    value {
      list {
        s: "loc:@rnn/multi_rnn_cell/cell_0/gru_cell/candidate/kernel"
      }
    }
  }
  attr {
    key: "_output_shapes"
    value {
      list {
        shape {
          dim {
            size: 81
          }
          dim {
            size: 80
          }
        }
      }
    }
  }
  attr {
    key: "use_locking"
    value {
      b: true
    }
  }
  attr {
    key: "validate_shape"
    value {
      b: true
    }
  }
}
node {
  name: "rnn/multi_rnn_cell/cell_0/gru_cell/candidate/kernel/read"
  op: "Identity"
  input: "rnn/multi_rnn_cell/cell_0/gru_cell/candidate/kernel"
  attr {
    key: "T"
    value {
      type: DT_FLOAT
    }
  }
  attr {
    key: "_output_shapes"
    value {
      list {
        shape {
          dim {
            size: 81
          }
          dim {
            size: 80
          }
        }
      }
    }
  }
}
node {
  name: "rnn/multi_rnn_cell/cell_0/gru_cell/candidate/bias/Initializer/zeros"
  op: "Const"
  attr {
    key: "_class"
    value {
      list {
        s: "loc:@rnn/multi_rnn_cell/cell_0/gru_cell/candidate/bias"
      }
    }
  }
  attr {
    key: "_output_shapes"
    value {
      list {
        shape {
          dim {
            size: 80
          }
        }
      }
    }
  }
  attr {
    key: "dtype"
    value {
      type: DT_FLOAT
    }
  }
  attr {
    key: "value"
    value {
      tensor {
        dtype: DT_FLOAT
        tensor_shape {
          dim {
            size: 80
          }
        }
        float_val: 0.0
      }
    }
  }
}
node {
  name: "rnn/multi_rnn_cell/cell_0/gru_cell/candidate/bias"
  op: "VariableV2"
  attr {
    key: "_class"
    value {
      list {
        s: "loc:@rnn/multi_rnn_cell/cell_0/gru_cell/candidate/bias"
      }
    }
  }
  attr {
    key: "_output_shapes"
    value {
      list {
        shape {
          dim {
            size: 80
          }
        }
      }
    }
  }
  attr {
    key: "container"
    value {
      s: ""
    }
  }
  attr {
    key: "dtype"
    value {
      type: DT_FLOAT
    }
  }
  attr {
    key: "shape"
    value {
      shape {
        dim {
          size: 80
        }
      }
    }
  }
  attr {
    key: "shared_name"
    value {
      s: ""
    }
  }
}
node {
  name: "rnn/multi_rnn_cell/cell_0/gru_cell/candidate/bias/Assign"
  op: "Assign"
  input: "rnn/multi_rnn_cell/cell_0/gru_cell/candidate/bias"
  input: "rnn/multi_rnn_cell/cell_0/gru_cell/candidate/bias/Initializer/zeros"
  attr {
    key: "T"
    value {
      type: DT_FLOAT
    }
  }
  attr {
    key: "_class"
    value {
      list {
        s: "loc:@rnn/multi_rnn_cell/cell_0/gru_cell/candidate/bias"
      }
    }
  }
  attr {
    key: "_output_shapes"
    value {
      list {
        shape {
          dim {
            size: 80
          }
        }
      }
    }
  }
  attr {
    key: "use_locking"
    value {
      b: true
    }
  }
  attr {
    key: "validate_shape"
    value {
      b: true
    }
  }
}
node {
  name: "rnn/multi_rnn_cell/cell_0/gru_cell/candidate/bias/read"
  op: "Identity"
  input: "rnn/multi_rnn_cell/cell_0/gru_cell/candidate/bias"
  attr {
    key: "T"
    value {
      type: DT_FLOAT
    }
  }
  attr {
    key: "_output_shapes"
    value {
      list {
        shape {
          dim {
            size: 80
          }
        }
      }
    }
  }
}
node {
  name: "rnn/while/rnn/multi_rnn_cell/cell_0/gru_cell/concat/axis"
  op: "Const"
  input: "^rnn/while/Identity"
  attr {
    key: "_output_shapes"
    value {
      list {
        shape {
        }
      }
    }
  }
  attr {
    key: "dtype"
    value {
      type: DT_INT32
    }
  }
  attr {
    key: "value"
    value {
      tensor {
        dtype: DT_INT32
        tensor_shape {
        }
        int_val: 1
      }
    }
  }
}
node {
  name: "rnn/while/rnn/multi_rnn_cell/cell_0/gru_cell/concat"
  op: "ConcatV2"
  input: "rnn/while/TensorArrayReadV3"
  input: "rnn/while/rnn/multi_rnn_cell/cell_0/Slice"
  input: "rnn/while/rnn/multi_rnn_cell/cell_0/gru_cell/concat/axis"
  attr {
    key: "N"
    value {
      i: 2
    }
  }
  attr {
    key: "T"
    value {
      type: DT_FLOAT
    }
  }
  attr {
    key: "Tidx"
    value {
      type: DT_INT32
    }
  }
  attr {
    key: "_output_shapes"
    value {
      list {
        shape {
          dim {
            size: -1
          }
          dim {
            size: 81
          }
        }
      }
    }
  }
}
node {
  name: "rnn/while/rnn/multi_rnn_cell/cell_0/gru_cell/MatMul"
  op: "MatMul"
  input: "rnn/while/rnn/multi_rnn_cell/cell_0/gru_cell/concat"
  input: "rnn/while/rnn/multi_rnn_cell/cell_0/gru_cell/MatMul/Enter"
  attr {
    key: "T"
    value {
      type: DT_FLOAT
    }
  }
  attr {
    key: "_output_shapes"
    value {
      list {
        shape {
          dim {
            size: -1
          }
          dim {
            size: 160
          }
        }
      }
    }
  }
  attr {
    key: "transpose_a"
    value {
      b: false
    }
  }
  attr {
    key: "transpose_b"
    value {
      b: false
    }
  }
}
node {
  name: "rnn/while/rnn/multi_rnn_cell/cell_0/gru_cell/MatMul/Enter"
  op: "Enter"
  input: "rnn/multi_rnn_cell/cell_0/gru_cell/gates/kernel/read"
  attr {
    key: "T"
    value {
      type: DT_FLOAT
    }
  }
  attr {
    key: "_output_shapes"
    value {
      list {
        shape {
          dim {
            size: 81
          }
          dim {
            size: 160
          }
        }
      }
    }
  }
  attr {
    key: "frame_name"
    value {
      s: "rnn/while/while_context"
    }
  }
  attr {
    key: "is_constant"
    value {
      b: true
    }
  }
  attr {
    key: "parallel_iterations"
    value {
      i: 32
    }
  }
}
node {
  name: "rnn/while/rnn/multi_rnn_cell/cell_0/gru_cell/BiasAdd"
  op: "BiasAdd"
  input: "rnn/while/rnn/multi_rnn_cell/cell_0/gru_cell/MatMul"
  input: "rnn/while/rnn/multi_rnn_cell/cell_0/gru_cell/BiasAdd/Enter"
  attr {
    key: "T"
    value {
      type: DT_FLOAT
    }
  }
  attr {
    key: "_output_shapes"
    value {
      list {
        shape {
          dim {
            size: -1
          }
          dim {
            size: 160
          }
        }
      }
    }
  }
  attr {
    key: "data_format"
    value {
      s: "NHWC"
    }
  }
}
node {
  name: "rnn/while/rnn/multi_rnn_cell/cell_0/gru_cell/BiasAdd/Enter"
  op: "Enter"
  input: "rnn/multi_rnn_cell/cell_0/gru_cell/gates/bias/read"
  attr {
    key: "T"
    value {
      type: DT_FLOAT
    }
  }
  attr {
    key: "_output_shapes"
    value {
      list {
        shape {
          dim {
            size: 160
          }
        }
      }
    }
  }
  attr {
    key: "frame_name"
    value {
      s: "rnn/while/while_context"
    }
  }
  attr {
    key: "is_constant"
    value {
      b: true
    }
  }
  attr {
    key: "parallel_iterations"
    value {
      i: 32
    }
  }
}
node {
  name: "rnn/while/rnn/multi_rnn_cell/cell_0/gru_cell/Sigmoid"
  op: "Sigmoid"
  input: "rnn/while/rnn/multi_rnn_cell/cell_0/gru_cell/BiasAdd"
  attr {
    key: "T"
    value {
      type: DT_FLOAT
    }
  }
  attr {
    key: "_output_shapes"
    value {
      list {
        shape {
          dim {
            size: -1
          }
          dim {
            size: 160
          }
        }
      }
    }
  }
}
node {
  name: "rnn/while/rnn/multi_rnn_cell/cell_0/gru_cell/Const"
  op: "Const"
  input: "^rnn/while/Identity"
  attr {
    key: "_output_shapes"
    value {
      list {
        shape {
        }
      }
    }
  }
  attr {
    key: "dtype"
    value {
      type: DT_INT32
    }
  }
  attr {
    key: "value"
    value {
      tensor {
        dtype: DT_INT32
        tensor_shape {
        }
        int_val: 2
      }
    }
  }
}
node {
  name: "rnn/while/rnn/multi_rnn_cell/cell_0/gru_cell/split/split_dim"
  op: "Const"
  input: "^rnn/while/Identity"
  attr {
    key: "_output_shapes"
    value {
      list {
        shape {
        }
      }
    }
  }
  attr {
    key: "dtype"
    value {
      type: DT_INT32
    }
  }
  attr {
    key: "value"
    value {
      tensor {
        dtype: DT_INT32
        tensor_shape {
        }
        int_val: 1
      }
    }
  }
}
node {
  name: "rnn/while/rnn/multi_rnn_cell/cell_0/gru_cell/split"
  op: "Split"
  input: "rnn/while/rnn/multi_rnn_cell/cell_0/gru_cell/split/split_dim"
  input: "rnn/while/rnn/multi_rnn_cell/cell_0/gru_cell/Sigmoid"
  attr {
    key: "T"
    value {
      type: DT_FLOAT
    }
  }
  attr {
    key: "_output_shapes"
    value {
      list {
        shape {
          dim {
            size: -1
          }
          dim {
            size: 80
          }
        }
        shape {
          dim {
            size: -1
          }
          dim {
            size: 80
          }
        }
      }
    }
  }
  attr {
    key: "num_split"
    value {
      i: 2
    }
  }
}
node {
  name: "rnn/while/rnn/multi_rnn_cell/cell_0/gru_cell/mul"
  op: "Mul"
  input: "rnn/while/rnn/multi_rnn_cell/cell_0/gru_cell/split"
  input: "rnn/while/rnn/multi_rnn_cell/cell_0/Slice"
  attr {
    key: "T"
    value {
      type: DT_FLOAT
    }
  }
  attr {
    key: "_output_shapes"
    value {
      list {
        shape {
          dim {
            size: -1
          }
          dim {
            size: 80
          }
        }
      }
    }
  }
}
node {
  name: "rnn/while/rnn/multi_rnn_cell/cell_0/gru_cell/concat_1/axis"
  op: "Const"
  input: "^rnn/while/Identity"
  attr {
    key: "_output_shapes"
    value {
      list {
        shape {
        }
      }
    }
  }
  attr {
    key: "dtype"
    value {
      type: DT_INT32
    }
  }
  attr {
    key: "value"
    value {
      tensor {
        dtype: DT_INT32
        tensor_shape {
        }
        int_val: 1
      }
    }
  }
}
node {
  name: "rnn/while/rnn/multi_rnn_cell/cell_0/gru_cell/concat_1"
  op: "ConcatV2"
  input: "rnn/while/TensorArrayReadV3"
  input: "rnn/while/rnn/multi_rnn_cell/cell_0/gru_cell/mul"
  input: "rnn/while/rnn/multi_rnn_cell/cell_0/gru_cell/concat_1/axis"
  attr {
    key: "N"
    value {
      i: 2
    }
  }
  attr {
    key: "T"
    value {
      type: DT_FLOAT
    }
  }
  attr {
    key: "Tidx"
    value {
      type: DT_INT32
    }
  }
  attr {
    key: "_output_shapes"
    value {
      list {
        shape {
          dim {
            size: -1
          }
          dim {
            size: 81
          }
        }
      }
    }
  }
}
node {
  name: "rnn/while/rnn/multi_rnn_cell/cell_0/gru_cell/MatMul_1"
  op: "MatMul"
  input: "rnn/while/rnn/multi_rnn_cell/cell_0/gru_cell/concat_1"
  input: "rnn/while/rnn/multi_rnn_cell/cell_0/gru_cell/MatMul_1/Enter"
  attr {
    key: "T"
    value {
      type: DT_FLOAT
    }
  }
  attr {
    key: "_output_shapes"
    value {
      list {
        shape {
          dim {
            size: -1
          }
          dim {
            size: 80
          }
        }
      }
    }
  }
  attr {
    key: "transpose_a"
    value {
      b: false
    }
  }
  attr {
    key: "transpose_b"
    value {
      b: false
    }
  }
}
node {
  name: "rnn/while/rnn/multi_rnn_cell/cell_0/gru_cell/MatMul_1/Enter"
  op: "Enter"
  input: "rnn/multi_rnn_cell/cell_0/gru_cell/candidate/kernel/read"
  attr {
    key: "T"
    value {
      type: DT_FLOAT
    }
  }
  attr {
    key: "_output_shapes"
    value {
      list {
        shape {
          dim {
            size: 81
          }
          dim {
            size: 80
          }
        }
      }
    }
  }
  attr {
    key: "frame_name"
    value {
      s: "rnn/while/while_context"
    }
  }
  attr {
    key: "is_constant"
    value {
      b: true
    }
  }
  attr {
    key: "parallel_iterations"
    value {
      i: 32
    }
  }
}
node {
  name: "rnn/while/rnn/multi_rnn_cell/cell_0/gru_cell/BiasAdd_1"
  op: "BiasAdd"
  input: "rnn/while/rnn/multi_rnn_cell/cell_0/gru_cell/MatMul_1"
  input: "rnn/while/rnn/multi_rnn_cell/cell_0/gru_cell/BiasAdd_1/Enter"
  attr {
    key: "T"
    value {
      type: DT_FLOAT
    }
  }
  attr {
    key: "_output_shapes"
    value {
      list {
        shape {
          dim {
            size: -1
          }
          dim {
            size: 80
          }
        }
      }
    }
  }
  attr {
    key: "data_format"
    value {
      s: "NHWC"
    }
  }
}
node {
  name: "rnn/while/rnn/multi_rnn_cell/cell_0/gru_cell/BiasAdd_1/Enter"
  op: "Enter"
  input: "rnn/multi_rnn_cell/cell_0/gru_cell/candidate/bias/read"
  attr {
    key: "T"
    value {
      type: DT_FLOAT
    }
  }
  attr {
    key: "_output_shapes"
    value {
      list {
        shape {
          dim {
            size: 80
          }
        }
      }
    }
  }
  attr {
    key: "frame_name"
    value {
      s: "rnn/while/while_context"
    }
  }
  attr {
    key: "is_constant"
    value {
      b: true
    }
  }
  attr {
    key: "parallel_iterations"
    value {
      i: 32
    }
  }
}
node {
  name: "rnn/while/rnn/multi_rnn_cell/cell_0/gru_cell/Tanh"
  op: "Tanh"
  input: "rnn/while/rnn/multi_rnn_cell/cell_0/gru_cell/BiasAdd_1"
  attr {
    key: "T"
    value {
      type: DT_FLOAT
    }
  }
  attr {
    key: "_output_shapes"
    value {
      list {
        shape {
          dim {
            size: -1
          }
          dim {
            size: 80
          }
        }
      }
    }
  }
}
node {
  name: "rnn/while/rnn/multi_rnn_cell/cell_0/gru_cell/mul_1"
  op: "Mul"
  input: "rnn/while/rnn/multi_rnn_cell/cell_0/gru_cell/split:1"
  input: "rnn/while/rnn/multi_rnn_cell/cell_0/Slice"
  attr {
    key: "T"
    value {
      type: DT_FLOAT
    }
  }
  attr {
    key: "_output_shapes"
    value {
      list {
        shape {
          dim {
            size: -1
          }
          dim {
            size: 80
          }
        }
      }
    }
  }
}
node {
  name: "rnn/while/rnn/multi_rnn_cell/cell_0/gru_cell/sub/x"
  op: "Const"
  input: "^rnn/while/Identity"
  attr {
    key: "_output_shapes"
    value {
      list {
        shape {
        }
      }
    }
  }
  attr {
    key: "dtype"
    value {
      type: DT_FLOAT
    }
  }
  attr {
    key: "value"
    value {
      tensor {
        dtype: DT_FLOAT
        tensor_shape {
        }
        float_val: 1.0
      }
    }
  }
}
node {
  name: "rnn/while/rnn/multi_rnn_cell/cell_0/gru_cell/sub"
  op: "Sub"
  input: "rnn/while/rnn/multi_rnn_cell/cell_0/gru_cell/sub/x"
  input: "rnn/while/rnn/multi_rnn_cell/cell_0/gru_cell/split:1"
  attr {
    key: "T"
    value {
      type: DT_FLOAT
    }
  }
  attr {
    key: "_output_shapes"
    value {
      list {
        shape {
          dim {
            size: -1
          }
          dim {
            size: 80
          }
        }
      }
    }
  }
}
node {
  name: "rnn/while/rnn/multi_rnn_cell/cell_0/gru_cell/mul_2"
  op: "Mul"
  input: "rnn/while/rnn/multi_rnn_cell/cell_0/gru_cell/sub"
  input: "rnn/while/rnn/multi_rnn_cell/cell_0/gru_cell/Tanh"
  attr {
    key: "T"
    value {
      type: DT_FLOAT
    }
  }
  attr {
    key: "_output_shapes"
    value {
      list {
        shape {
          dim {
            size: -1
          }
          dim {
            size: 80
          }
        }
      }
    }
  }
}
node {
  name: "rnn/while/rnn/multi_rnn_cell/cell_0/gru_cell/add"
  op: "Add"
  input: "rnn/while/rnn/multi_rnn_cell/cell_0/gru_cell/mul_1"
  input: "rnn/while/rnn/multi_rnn_cell/cell_0/gru_cell/mul_2"
  attr {
    key: "T"
    value {
      type: DT_FLOAT
    }
  }
  attr {
    key: "_output_shapes"
    value {
      list {
        shape {
          dim {
            size: -1
          }
          dim {
            size: 80
          }
        }
      }
    }
  }
}
node {
  name: "rnn/while/rnn/multi_rnn_cell/cell_0/dropout/keep_prob"
  op: "Const"
  input: "^rnn/while/Identity"
  attr {
    key: "_output_shapes"
    value {
      list {
        shape {
        }
      }
    }
  }
  attr {
    key: "dtype"
    value {
      type: DT_FLOAT
    }
  }
  attr {
    key: "value"
    value {
      tensor {
        dtype: DT_FLOAT
        tensor_shape {
        }
        float_val: 0.699999988079071
      }
    }
  }
}
node {
  name: "rnn/while/rnn/multi_rnn_cell/cell_0/dropout/Shape"
  op: "Shape"
  input: "rnn/while/rnn/multi_rnn_cell/cell_0/gru_cell/add"
  attr {
    key: "T"
    value {
      type: DT_FLOAT
    }
  }
  attr {
    key: "_output_shapes"
    value {
      list {
        shape {
          dim {
            size: 2
          }
        }
      }
    }
  }
  attr {
    key: "out_type"
    value {
      type: DT_INT32
    }
  }
}
node {
  name: "rnn/while/rnn/multi_rnn_cell/cell_0/dropout/random_uniform/min"
  op: "Const"
  input: "^rnn/while/Identity"
  attr {
    key: "_output_shapes"
    value {
      list {
        shape {
        }
      }
    }
  }
  attr {
    key: "dtype"
    value {
      type: DT_FLOAT
    }
  }
  attr {
    key: "value"
    value {
      tensor {
        dtype: DT_FLOAT
        tensor_shape {
        }
        float_val: 0.0
      }
    }
  }
}
node {
  name: "rnn/while/rnn/multi_rnn_cell/cell_0/dropout/random_uniform/max"
  op: "Const"
  input: "^rnn/while/Identity"
  attr {
    key: "_output_shapes"
    value {
      list {
        shape {
        }
      }
    }
  }
  attr {
    key: "dtype"
    value {
      type: DT_FLOAT
    }
  }
  attr {
    key: "value"
    value {
      tensor {
        dtype: DT_FLOAT
        tensor_shape {
        }
        float_val: 1.0
      }
    }
  }
}
node {
  name: "rnn/while/rnn/multi_rnn_cell/cell_0/dropout/random_uniform/RandomUniform"
  op: "RandomUniform"
  input: "rnn/while/rnn/multi_rnn_cell/cell_0/dropout/Shape"
  attr {
    key: "T"
    value {
      type: DT_INT32
    }
  }
  attr {
    key: "_output_shapes"
    value {
      list {
        shape {
          dim {
            size: -1
          }
          dim {
            size: 80
          }
        }
      }
    }
  }
  attr {
    key: "dtype"
    value {
      type: DT_FLOAT
    }
  }
  attr {
    key: "seed"
    value {
      i: 0
    }
  }
  attr {
    key: "seed2"
    value {
      i: 0
    }
  }
}
node {
  name: "rnn/while/rnn/multi_rnn_cell/cell_0/dropout/random_uniform/sub"
  op: "Sub"
  input: "rnn/while/rnn/multi_rnn_cell/cell_0/dropout/random_uniform/max"
  input: "rnn/while/rnn/multi_rnn_cell/cell_0/dropout/random_uniform/min"
  attr {
    key: "T"
    value {
      type: DT_FLOAT
    }
  }
  attr {
    key: "_output_shapes"
    value {
      list {
        shape {
        }
      }
    }
  }
}
node {
  name: "rnn/while/rnn/multi_rnn_cell/cell_0/dropout/random_uniform/mul"
  op: "Mul"
  input: "rnn/while/rnn/multi_rnn_cell/cell_0/dropout/random_uniform/RandomUniform"
  input: "rnn/while/rnn/multi_rnn_cell/cell_0/dropout/random_uniform/sub"
  attr {
    key: "T"
    value {
      type: DT_FLOAT
    }
  }
  attr {
    key: "_output_shapes"
    value {
      list {
        shape {
          dim {
            size: -1
          }
          dim {
            size: 80
          }
        }
      }
    }
  }
}
node {
  name: "rnn/while/rnn/multi_rnn_cell/cell_0/dropout/random_uniform"
  op: "Add"
  input: "rnn/while/rnn/multi_rnn_cell/cell_0/dropout/random_uniform/mul"
  input: "rnn/while/rnn/multi_rnn_cell/cell_0/dropout/random_uniform/min"
  attr {
    key: "T"
    value {
      type: DT_FLOAT
    }
  }
  attr {
    key: "_output_shapes"
    value {
      list {
        shape {
          dim {
            size: -1
          }
          dim {
            size: 80
          }
        }
      }
    }
  }
}
node {
  name: "rnn/while/rnn/multi_rnn_cell/cell_0/dropout/add"
  op: "Add"
  input: "rnn/while/rnn/multi_rnn_cell/cell_0/dropout/keep_prob"
  input: "rnn/while/rnn/multi_rnn_cell/cell_0/dropout/random_uniform"
  attr {
    key: "T"
    value {
      type: DT_FLOAT
    }
  }
  attr {
    key: "_output_shapes"
    value {
      list {
        shape {
          dim {
            size: -1
          }
          dim {
            size: 80
          }
        }
      }
    }
  }
}
node {
  name: "rnn/while/rnn/multi_rnn_cell/cell_0/dropout/Floor"
  op: "Floor"
  input: "rnn/while/rnn/multi_rnn_cell/cell_0/dropout/add"
  attr {
    key: "T"
    value {
      type: DT_FLOAT
    }
  }
  attr {
    key: "_output_shapes"
    value {
      list {
        shape {
          dim {
            size: -1
          }
          dim {
            size: 80
          }
        }
      }
    }
  }
}
node {
  name: "rnn/while/rnn/multi_rnn_cell/cell_0/dropout/div"
  op: "RealDiv"
  input: "rnn/while/rnn/multi_rnn_cell/cell_0/gru_cell/add"
  input: "rnn/while/rnn/multi_rnn_cell/cell_0/dropout/keep_prob"
  attr {
    key: "T"
    value {
      type: DT_FLOAT
    }
  }
  attr {
    key: "_output_shapes"
    value {
      list {
        shape {
          dim {
            size: -1
          }
          dim {
            size: 80
          }
        }
      }
    }
  }
}
node {
  name: "rnn/while/rnn/multi_rnn_cell/cell_0/dropout/mul"
  op: "Mul"
  input: "rnn/while/rnn/multi_rnn_cell/cell_0/dropout/div"
  input: "rnn/while/rnn/multi_rnn_cell/cell_0/dropout/Floor"
  attr {
    key: "T"
    value {
      type: DT_FLOAT
    }
  }
  attr {
    key: "_output_shapes"
    value {
      list {
        shape {
          dim {
            size: -1
          }
          dim {
            size: 80
          }
        }
      }
    }
  }
}
node {
  name: "rnn/while/rnn/multi_rnn_cell/cell_1/Slice/begin"
  op: "Const"
  input: "^rnn/while/Identity"
  attr {
    key: "_output_shapes"
    value {
      list {
        shape {
          dim {
            size: 2
          }
        }
      }
    }
  }
  attr {
    key: "dtype"
    value {
      type: DT_INT32
    }
  }
  attr {
    key: "value"
    value {
      tensor {
        dtype: DT_INT32
        tensor_shape {
          dim {
            size: 2
          }
        }
        tensor_content: "\000\000\000\000P\000\000\000"
      }
    }
  }
}
node {
  name: "rnn/while/rnn/multi_rnn_cell/cell_1/Slice/size"
  op: "Const"
  input: "^rnn/while/Identity"
  attr {
    key: "_output_shapes"
    value {
      list {
        shape {
          dim {
            size: 2
          }
        }
      }
    }
  }
  attr {
    key: "dtype"
    value {
      type: DT_INT32
    }
  }
  attr {
    key: "value"
    value {
      tensor {
        dtype: DT_INT32
        tensor_shape {
          dim {
            size: 2
          }
        }
        tensor_content: "\377\377\377\377P\000\000\000"
      }
    }
  }
}
node {
  name: "rnn/while/rnn/multi_rnn_cell/cell_1/Slice"
  op: "Slice"
  input: "rnn/while/Identity_3"
  input: "rnn/while/rnn/multi_rnn_cell/cell_1/Slice/begin"
  input: "rnn/while/rnn/multi_rnn_cell/cell_1/Slice/size"
  attr {
    key: "Index"
    value {
      type: DT_INT32
    }
  }
  attr {
    key: "T"
    value {
      type: DT_FLOAT
    }
  }
  attr {
    key: "_output_shapes"
    value {
      list {
        shape {
          dim {
            size: -1
          }
          dim {
            size: 80
          }
        }
      }
    }
  }
}
node {
  name: "rnn/multi_rnn_cell/cell_1/gru_cell/gates/kernel/Initializer/random_uniform/shape"
  op: "Const"
  attr {
    key: "_class"
    value {
      list {
        s: "loc:@rnn/multi_rnn_cell/cell_1/gru_cell/gates/kernel"
      }
    }
  }
  attr {
    key: "_output_shapes"
    value {
      list {
        shape {
          dim {
            size: 2
          }
        }
      }
    }
  }
  attr {
    key: "dtype"
    value {
      type: DT_INT32
    }
  }
  attr {
    key: "value"
    value {
      tensor {
        dtype: DT_INT32
        tensor_shape {
          dim {
            size: 2
          }
        }
        tensor_content: "\240\000\000\000\240\000\000\000"
      }
    }
  }
}
node {
  name: "rnn/multi_rnn_cell/cell_1/gru_cell/gates/kernel/Initializer/random_uniform/min"
  op: "Const"
  attr {
    key: "_class"
    value {
      list {
        s: "loc:@rnn/multi_rnn_cell/cell_1/gru_cell/gates/kernel"
      }
    }
  }
  attr {
    key: "_output_shapes"
    value {
      list {
        shape {
        }
      }
    }
  }
  attr {
    key: "dtype"
    value {
      type: DT_FLOAT
    }
  }
  attr {
    key: "value"
    value {
      tensor {
        dtype: DT_FLOAT
        tensor_shape {
        }
        float_val: -0.1369306445121765
      }
    }
  }
}
node {
  name: "rnn/multi_rnn_cell/cell_1/gru_cell/gates/kernel/Initializer/random_uniform/max"
  op: "Const"
  attr {
    key: "_class"
    value {
      list {
        s: "loc:@rnn/multi_rnn_cell/cell_1/gru_cell/gates/kernel"
      }
    }
  }
  attr {
    key: "_output_shapes"
    value {
      list {
        shape {
        }
      }
    }
  }
  attr {
    key: "dtype"
    value {
      type: DT_FLOAT
    }
  }
  attr {
    key: "value"
    value {
      tensor {
        dtype: DT_FLOAT
        tensor_shape {
        }
        float_val: 0.1369306445121765
      }
    }
  }
}
node {
  name: "rnn/multi_rnn_cell/cell_1/gru_cell/gates/kernel/Initializer/random_uniform/RandomUniform"
  op: "RandomUniform"
  input: "rnn/multi_rnn_cell/cell_1/gru_cell/gates/kernel/Initializer/random_uniform/shape"
  attr {
    key: "T"
    value {
      type: DT_INT32
    }
  }
  attr {
    key: "_class"
    value {
      list {
        s: "loc:@rnn/multi_rnn_cell/cell_1/gru_cell/gates/kernel"
      }
    }
  }
  attr {
    key: "_output_shapes"
    value {
      list {
        shape {
          dim {
            size: 160
          }
          dim {
            size: 160
          }
        }
      }
    }
  }
  attr {
    key: "dtype"
    value {
      type: DT_FLOAT
    }
  }
  attr {
    key: "seed"
    value {
      i: 0
    }
  }
  attr {
    key: "seed2"
    value {
      i: 0
    }
  }
}
node {
  name: "rnn/multi_rnn_cell/cell_1/gru_cell/gates/kernel/Initializer/random_uniform/sub"
  op: "Sub"
  input: "rnn/multi_rnn_cell/cell_1/gru_cell/gates/kernel/Initializer/random_uniform/max"
  input: "rnn/multi_rnn_cell/cell_1/gru_cell/gates/kernel/Initializer/random_uniform/min"
  attr {
    key: "T"
    value {
      type: DT_FLOAT
    }
  }
  attr {
    key: "_class"
    value {
      list {
        s: "loc:@rnn/multi_rnn_cell/cell_1/gru_cell/gates/kernel"
      }
    }
  }
  attr {
    key: "_output_shapes"
    value {
      list {
        shape {
        }
      }
    }
  }
}
node {
  name: "rnn/multi_rnn_cell/cell_1/gru_cell/gates/kernel/Initializer/random_uniform/mul"
  op: "Mul"
  input: "rnn/multi_rnn_cell/cell_1/gru_cell/gates/kernel/Initializer/random_uniform/RandomUniform"
  input: "rnn/multi_rnn_cell/cell_1/gru_cell/gates/kernel/Initializer/random_uniform/sub"
  attr {
    key: "T"
    value {
      type: DT_FLOAT
    }
  }
  attr {
    key: "_class"
    value {
      list {
        s: "loc:@rnn/multi_rnn_cell/cell_1/gru_cell/gates/kernel"
      }
    }
  }
  attr {
    key: "_output_shapes"
    value {
      list {
        shape {
          dim {
            size: 160
          }
          dim {
            size: 160
          }
        }
      }
    }
  }
}
node {
  name: "rnn/multi_rnn_cell/cell_1/gru_cell/gates/kernel/Initializer/random_uniform"
  op: "Add"
  input: "rnn/multi_rnn_cell/cell_1/gru_cell/gates/kernel/Initializer/random_uniform/mul"
  input: "rnn/multi_rnn_cell/cell_1/gru_cell/gates/kernel/Initializer/random_uniform/min"
  attr {
    key: "T"
    value {
      type: DT_FLOAT
    }
  }
  attr {
    key: "_class"
    value {
      list {
        s: "loc:@rnn/multi_rnn_cell/cell_1/gru_cell/gates/kernel"
      }
    }
  }
  attr {
    key: "_output_shapes"
    value {
      list {
        shape {
          dim {
            size: 160
          }
          dim {
            size: 160
          }
        }
      }
    }
  }
}
node {
  name: "rnn/multi_rnn_cell/cell_1/gru_cell/gates/kernel"
  op: "VariableV2"
  attr {
    key: "_class"
    value {
      list {
        s: "loc:@rnn/multi_rnn_cell/cell_1/gru_cell/gates/kernel"
      }
    }
  }
  attr {
    key: "_output_shapes"
    value {
      list {
        shape {
          dim {
            size: 160
          }
          dim {
            size: 160
          }
        }
      }
    }
  }
  attr {
    key: "container"
    value {
      s: ""
    }
  }
  attr {
    key: "dtype"
    value {
      type: DT_FLOAT
    }
  }
  attr {
    key: "shape"
    value {
      shape {
        dim {
          size: 160
        }
        dim {
          size: 160
        }
      }
    }
  }
  attr {
    key: "shared_name"
    value {
      s: ""
    }
  }
}
node {
  name: "rnn/multi_rnn_cell/cell_1/gru_cell/gates/kernel/Assign"
  op: "Assign"
  input: "rnn/multi_rnn_cell/cell_1/gru_cell/gates/kernel"
  input: "rnn/multi_rnn_cell/cell_1/gru_cell/gates/kernel/Initializer/random_uniform"
  attr {
    key: "T"
    value {
      type: DT_FLOAT
    }
  }
  attr {
    key: "_class"
    value {
      list {
        s: "loc:@rnn/multi_rnn_cell/cell_1/gru_cell/gates/kernel"
      }
    }
  }
  attr {
    key: "_output_shapes"
    value {
      list {
        shape {
          dim {
            size: 160
          }
          dim {
            size: 160
          }
        }
      }
    }
  }
  attr {
    key: "use_locking"
    value {
      b: true
    }
  }
  attr {
    key: "validate_shape"
    value {
      b: true
    }
  }
}
node {
  name: "rnn/multi_rnn_cell/cell_1/gru_cell/gates/kernel/read"
  op: "Identity"
  input: "rnn/multi_rnn_cell/cell_1/gru_cell/gates/kernel"
  attr {
    key: "T"
    value {
      type: DT_FLOAT
    }
  }
  attr {
    key: "_output_shapes"
    value {
      list {
        shape {
          dim {
            size: 160
          }
          dim {
            size: 160
          }
        }
      }
    }
  }
}
node {
  name: "rnn/multi_rnn_cell/cell_1/gru_cell/gates/bias/Initializer/Const"
  op: "Const"
  attr {
    key: "_class"
    value {
      list {
        s: "loc:@rnn/multi_rnn_cell/cell_1/gru_cell/gates/bias"
      }
    }
  }
  attr {
    key: "_output_shapes"
    value {
      list {
        shape {
          dim {
            size: 160
          }
        }
      }
    }
  }
  attr {
    key: "dtype"
    value {
      type: DT_FLOAT
    }
  }
  attr {
    key: "value"
    value {
      tensor {
        dtype: DT_FLOAT
        tensor_shape {
          dim {
            size: 160
          }
        }
        float_val: 1.0
      }
    }
  }
}
node {
  name: "rnn/multi_rnn_cell/cell_1/gru_cell/gates/bias"
  op: "VariableV2"
  attr {
    key: "_class"
    value {
      list {
        s: "loc:@rnn/multi_rnn_cell/cell_1/gru_cell/gates/bias"
      }
    }
  }
  attr {
    key: "_output_shapes"
    value {
      list {
        shape {
          dim {
            size: 160
          }
        }
      }
    }
  }
  attr {
    key: "container"
    value {
      s: ""
    }
  }
  attr {
    key: "dtype"
    value {
      type: DT_FLOAT
    }
  }
  attr {
    key: "shape"
    value {
      shape {
        dim {
          size: 160
        }
      }
    }
  }
  attr {
    key: "shared_name"
    value {
      s: ""
    }
  }
}
node {
  name: "rnn/multi_rnn_cell/cell_1/gru_cell/gates/bias/Assign"
  op: "Assign"
  input: "rnn/multi_rnn_cell/cell_1/gru_cell/gates/bias"
  input: "rnn/multi_rnn_cell/cell_1/gru_cell/gates/bias/Initializer/Const"
  attr {
    key: "T"
    value {
      type: DT_FLOAT
    }
  }
  attr {
    key: "_class"
    value {
      list {
        s: "loc:@rnn/multi_rnn_cell/cell_1/gru_cell/gates/bias"
      }
    }
  }
  attr {
    key: "_output_shapes"
    value {
      list {
        shape {
          dim {
            size: 160
          }
        }
      }
    }
  }
  attr {
    key: "use_locking"
    value {
      b: true
    }
  }
  attr {
    key: "validate_shape"
    value {
      b: true
    }
  }
}
node {
  name: "rnn/multi_rnn_cell/cell_1/gru_cell/gates/bias/read"
  op: "Identity"
  input: "rnn/multi_rnn_cell/cell_1/gru_cell/gates/bias"
  attr {
    key: "T"
    value {
      type: DT_FLOAT
    }
  }
  attr {
    key: "_output_shapes"
    value {
      list {
        shape {
          dim {
            size: 160
          }
        }
      }
    }
  }
}
node {
  name: "rnn/multi_rnn_cell/cell_1/gru_cell/candidate/kernel/Initializer/random_uniform/shape"
  op: "Const"
  attr {
    key: "_class"
    value {
      list {
        s: "loc:@rnn/multi_rnn_cell/cell_1/gru_cell/candidate/kernel"
      }
    }
  }
  attr {
    key: "_output_shapes"
    value {
      list {
        shape {
          dim {
            size: 2
          }
        }
      }
    }
  }
  attr {
    key: "dtype"
    value {
      type: DT_INT32
    }
  }
  attr {
    key: "value"
    value {
      tensor {
        dtype: DT_INT32
        tensor_shape {
          dim {
            size: 2
          }
        }
        tensor_content: "\240\000\000\000P\000\000\000"
      }
    }
  }
}
node {
  name: "rnn/multi_rnn_cell/cell_1/gru_cell/candidate/kernel/Initializer/random_uniform/min"
  op: "Const"
  attr {
    key: "_class"
    value {
      list {
        s: "loc:@rnn/multi_rnn_cell/cell_1/gru_cell/candidate/kernel"
      }
    }
  }
  attr {
    key: "_output_shapes"
    value {
      list {
        shape {
        }
      }
    }
  }
  attr {
    key: "dtype"
    value {
      type: DT_FLOAT
    }
  }
  attr {
    key: "value"
    value {
      tensor {
        dtype: DT_FLOAT
        tensor_shape {
        }
        float_val: -0.15811388194561005
      }
    }
  }
}
node {
  name: "rnn/multi_rnn_cell/cell_1/gru_cell/candidate/kernel/Initializer/random_uniform/max"
  op: "Const"
  attr {
    key: "_class"
    value {
      list {
        s: "loc:@rnn/multi_rnn_cell/cell_1/gru_cell/candidate/kernel"
      }
    }
  }
  attr {
    key: "_output_shapes"
    value {
      list {
        shape {
        }
      }
    }
  }
  attr {
    key: "dtype"
    value {
      type: DT_FLOAT
    }
  }
  attr {
    key: "value"
    value {
      tensor {
        dtype: DT_FLOAT
        tensor_shape {
        }
        float_val: 0.15811388194561005
      }
    }
  }
}
node {
  name: "rnn/multi_rnn_cell/cell_1/gru_cell/candidate/kernel/Initializer/random_uniform/RandomUniform"
  op: "RandomUniform"
  input: "rnn/multi_rnn_cell/cell_1/gru_cell/candidate/kernel/Initializer/random_uniform/shape"
  attr {
    key: "T"
    value {
      type: DT_INT32
    }
  }
  attr {
    key: "_class"
    value {
      list {
        s: "loc:@rnn/multi_rnn_cell/cell_1/gru_cell/candidate/kernel"
      }
    }
  }
  attr {
    key: "_output_shapes"
    value {
      list {
        shape {
          dim {
            size: 160
          }
          dim {
            size: 80
          }
        }
      }
    }
  }
  attr {
    key: "dtype"
    value {
      type: DT_FLOAT
    }
  }
  attr {
    key: "seed"
    value {
      i: 0
    }
  }
  attr {
    key: "seed2"
    value {
      i: 0
    }
  }
}
node {
  name: "rnn/multi_rnn_cell/cell_1/gru_cell/candidate/kernel/Initializer/random_uniform/sub"
  op: "Sub"
  input: "rnn/multi_rnn_cell/cell_1/gru_cell/candidate/kernel/Initializer/random_uniform/max"
  input: "rnn/multi_rnn_cell/cell_1/gru_cell/candidate/kernel/Initializer/random_uniform/min"
  attr {
    key: "T"
    value {
      type: DT_FLOAT
    }
  }
  attr {
    key: "_class"
    value {
      list {
        s: "loc:@rnn/multi_rnn_cell/cell_1/gru_cell/candidate/kernel"
      }
    }
  }
  attr {
    key: "_output_shapes"
    value {
      list {
        shape {
        }
      }
    }
  }
}
node {
  name: "rnn/multi_rnn_cell/cell_1/gru_cell/candidate/kernel/Initializer/random_uniform/mul"
  op: "Mul"
  input: "rnn/multi_rnn_cell/cell_1/gru_cell/candidate/kernel/Initializer/random_uniform/RandomUniform"
  input: "rnn/multi_rnn_cell/cell_1/gru_cell/candidate/kernel/Initializer/random_uniform/sub"
  attr {
    key: "T"
    value {
      type: DT_FLOAT
    }
  }
  attr {
    key: "_class"
    value {
      list {
        s: "loc:@rnn/multi_rnn_cell/cell_1/gru_cell/candidate/kernel"
      }
    }
  }
  attr {
    key: "_output_shapes"
    value {
      list {
        shape {
          dim {
            size: 160
          }
          dim {
            size: 80
          }
        }
      }
    }
  }
}
node {
  name: "rnn/multi_rnn_cell/cell_1/gru_cell/candidate/kernel/Initializer/random_uniform"
  op: "Add"
  input: "rnn/multi_rnn_cell/cell_1/gru_cell/candidate/kernel/Initializer/random_uniform/mul"
  input: "rnn/multi_rnn_cell/cell_1/gru_cell/candidate/kernel/Initializer/random_uniform/min"
  attr {
    key: "T"
    value {
      type: DT_FLOAT
    }
  }
  attr {
    key: "_class"
    value {
      list {
        s: "loc:@rnn/multi_rnn_cell/cell_1/gru_cell/candidate/kernel"
      }
    }
  }
  attr {
    key: "_output_shapes"
    value {
      list {
        shape {
          dim {
            size: 160
          }
          dim {
            size: 80
          }
        }
      }
    }
  }
}
node {
  name: "rnn/multi_rnn_cell/cell_1/gru_cell/candidate/kernel"
  op: "VariableV2"
  attr {
    key: "_class"
    value {
      list {
        s: "loc:@rnn/multi_rnn_cell/cell_1/gru_cell/candidate/kernel"
      }
    }
  }
  attr {
    key: "_output_shapes"
    value {
      list {
        shape {
          dim {
            size: 160
          }
          dim {
            size: 80
          }
        }
      }
    }
  }
  attr {
    key: "container"
    value {
      s: ""
    }
  }
  attr {
    key: "dtype"
    value {
      type: DT_FLOAT
    }
  }
  attr {
    key: "shape"
    value {
      shape {
        dim {
          size: 160
        }
        dim {
          size: 80
        }
      }
    }
  }
  attr {
    key: "shared_name"
    value {
      s: ""
    }
  }
}
node {
  name: "rnn/multi_rnn_cell/cell_1/gru_cell/candidate/kernel/Assign"
  op: "Assign"
  input: "rnn/multi_rnn_cell/cell_1/gru_cell/candidate/kernel"
  input: "rnn/multi_rnn_cell/cell_1/gru_cell/candidate/kernel/Initializer/random_uniform"
  attr {
    key: "T"
    value {
      type: DT_FLOAT
    }
  }
  attr {
    key: "_class"
    value {
      list {
        s: "loc:@rnn/multi_rnn_cell/cell_1/gru_cell/candidate/kernel"
      }
    }
  }
  attr {
    key: "_output_shapes"
    value {
      list {
        shape {
          dim {
            size: 160
          }
          dim {
            size: 80
          }
        }
      }
    }
  }
  attr {
    key: "use_locking"
    value {
      b: true
    }
  }
  attr {
    key: "validate_shape"
    value {
      b: true
    }
  }
}
node {
  name: "rnn/multi_rnn_cell/cell_1/gru_cell/candidate/kernel/read"
  op: "Identity"
  input: "rnn/multi_rnn_cell/cell_1/gru_cell/candidate/kernel"
  attr {
    key: "T"
    value {
      type: DT_FLOAT
    }
  }
  attr {
    key: "_output_shapes"
    value {
      list {
        shape {
          dim {
            size: 160
          }
          dim {
            size: 80
          }
        }
      }
    }
  }
}
node {
  name: "rnn/multi_rnn_cell/cell_1/gru_cell/candidate/bias/Initializer/zeros"
  op: "Const"
  attr {
    key: "_class"
    value {
      list {
        s: "loc:@rnn/multi_rnn_cell/cell_1/gru_cell/candidate/bias"
      }
    }
  }
  attr {
    key: "_output_shapes"
    value {
      list {
        shape {
          dim {
            size: 80
          }
        }
      }
    }
  }
  attr {
    key: "dtype"
    value {
      type: DT_FLOAT
    }
  }
  attr {
    key: "value"
    value {
      tensor {
        dtype: DT_FLOAT
        tensor_shape {
          dim {
            size: 80
          }
        }
        float_val: 0.0
      }
    }
  }
}
node {
  name: "rnn/multi_rnn_cell/cell_1/gru_cell/candidate/bias"
  op: "VariableV2"
  attr {
    key: "_class"
    value {
      list {
        s: "loc:@rnn/multi_rnn_cell/cell_1/gru_cell/candidate/bias"
      }
    }
  }
  attr {
    key: "_output_shapes"
    value {
      list {
        shape {
          dim {
            size: 80
          }
        }
      }
    }
  }
  attr {
    key: "container"
    value {
      s: ""
    }
  }
  attr {
    key: "dtype"
    value {
      type: DT_FLOAT
    }
  }
  attr {
    key: "shape"
    value {
      shape {
        dim {
          size: 80
        }
      }
    }
  }
  attr {
    key: "shared_name"
    value {
      s: ""
    }
  }
}
node {
  name: "rnn/multi_rnn_cell/cell_1/gru_cell/candidate/bias/Assign"
  op: "Assign"
  input: "rnn/multi_rnn_cell/cell_1/gru_cell/candidate/bias"
  input: "rnn/multi_rnn_cell/cell_1/gru_cell/candidate/bias/Initializer/zeros"
  attr {
    key: "T"
    value {
      type: DT_FLOAT
    }
  }
  attr {
    key: "_class"
    value {
      list {
        s: "loc:@rnn/multi_rnn_cell/cell_1/gru_cell/candidate/bias"
      }
    }
  }
  attr {
    key: "_output_shapes"
    value {
      list {
        shape {
          dim {
            size: 80
          }
        }
      }
    }
  }
  attr {
    key: "use_locking"
    value {
      b: true
    }
  }
  attr {
    key: "validate_shape"
    value {
      b: true
    }
  }
}
node {
  name: "rnn/multi_rnn_cell/cell_1/gru_cell/candidate/bias/read"
  op: "Identity"
  input: "rnn/multi_rnn_cell/cell_1/gru_cell/candidate/bias"
  attr {
    key: "T"
    value {
      type: DT_FLOAT
    }
  }
  attr {
    key: "_output_shapes"
    value {
      list {
        shape {
          dim {
            size: 80
          }
        }
      }
    }
  }
}
node {
  name: "rnn/while/rnn/multi_rnn_cell/cell_1/gru_cell/concat/axis"
  op: "Const"
  input: "^rnn/while/Identity"
  attr {
    key: "_output_shapes"
    value {
      list {
        shape {
        }
      }
    }
  }
  attr {
    key: "dtype"
    value {
      type: DT_INT32
    }
  }
  attr {
    key: "value"
    value {
      tensor {
        dtype: DT_INT32
        tensor_shape {
        }
        int_val: 1
      }
    }
  }
}
node {
  name: "rnn/while/rnn/multi_rnn_cell/cell_1/gru_cell/concat"
  op: "ConcatV2"
  input: "rnn/while/rnn/multi_rnn_cell/cell_0/dropout/mul"
  input: "rnn/while/rnn/multi_rnn_cell/cell_1/Slice"
  input: "rnn/while/rnn/multi_rnn_cell/cell_1/gru_cell/concat/axis"
  attr {
    key: "N"
    value {
      i: 2
    }
  }
  attr {
    key: "T"
    value {
      type: DT_FLOAT
    }
  }
  attr {
    key: "Tidx"
    value {
      type: DT_INT32
    }
  }
  attr {
    key: "_output_shapes"
    value {
      list {
        shape {
          dim {
            size: -1
          }
          dim {
            size: 160
          }
        }
      }
    }
  }
}
node {
  name: "rnn/while/rnn/multi_rnn_cell/cell_1/gru_cell/MatMul"
  op: "MatMul"
  input: "rnn/while/rnn/multi_rnn_cell/cell_1/gru_cell/concat"
  input: "rnn/while/rnn/multi_rnn_cell/cell_1/gru_cell/MatMul/Enter"
  attr {
    key: "T"
    value {
      type: DT_FLOAT
    }
  }
  attr {
    key: "_output_shapes"
    value {
      list {
        shape {
          dim {
            size: -1
          }
          dim {
            size: 160
          }
        }
      }
    }
  }
  attr {
    key: "transpose_a"
    value {
      b: false
    }
  }
  attr {
    key: "transpose_b"
    value {
      b: false
    }
  }
}
node {
  name: "rnn/while/rnn/multi_rnn_cell/cell_1/gru_cell/MatMul/Enter"
  op: "Enter"
  input: "rnn/multi_rnn_cell/cell_1/gru_cell/gates/kernel/read"
  attr {
    key: "T"
    value {
      type: DT_FLOAT
    }
  }
  attr {
    key: "_output_shapes"
    value {
      list {
        shape {
          dim {
            size: 160
          }
          dim {
            size: 160
          }
        }
      }
    }
  }
  attr {
    key: "frame_name"
    value {
      s: "rnn/while/while_context"
    }
  }
  attr {
    key: "is_constant"
    value {
      b: true
    }
  }
  attr {
    key: "parallel_iterations"
    value {
      i: 32
    }
  }
}
node {
  name: "rnn/while/rnn/multi_rnn_cell/cell_1/gru_cell/BiasAdd"
  op: "BiasAdd"
  input: "rnn/while/rnn/multi_rnn_cell/cell_1/gru_cell/MatMul"
  input: "rnn/while/rnn/multi_rnn_cell/cell_1/gru_cell/BiasAdd/Enter"
  attr {
    key: "T"
    value {
      type: DT_FLOAT
    }
  }
  attr {
    key: "_output_shapes"
    value {
      list {
        shape {
          dim {
            size: -1
          }
          dim {
            size: 160
          }
        }
      }
    }
  }
  attr {
    key: "data_format"
    value {
      s: "NHWC"
    }
  }
}
node {
  name: "rnn/while/rnn/multi_rnn_cell/cell_1/gru_cell/BiasAdd/Enter"
  op: "Enter"
  input: "rnn/multi_rnn_cell/cell_1/gru_cell/gates/bias/read"
  attr {
    key: "T"
    value {
      type: DT_FLOAT
    }
  }
  attr {
    key: "_output_shapes"
    value {
      list {
        shape {
          dim {
            size: 160
          }
        }
      }
    }
  }
  attr {
    key: "frame_name"
    value {
      s: "rnn/while/while_context"
    }
  }
  attr {
    key: "is_constant"
    value {
      b: true
    }
  }
  attr {
    key: "parallel_iterations"
    value {
      i: 32
    }
  }
}
node {
  name: "rnn/while/rnn/multi_rnn_cell/cell_1/gru_cell/Sigmoid"
  op: "Sigmoid"
  input: "rnn/while/rnn/multi_rnn_cell/cell_1/gru_cell/BiasAdd"
  attr {
    key: "T"
    value {
      type: DT_FLOAT
    }
  }
  attr {
    key: "_output_shapes"
    value {
      list {
        shape {
          dim {
            size: -1
          }
          dim {
            size: 160
          }
        }
      }
    }
  }
}
node {
  name: "rnn/while/rnn/multi_rnn_cell/cell_1/gru_cell/Const"
  op: "Const"
  input: "^rnn/while/Identity"
  attr {
    key: "_output_shapes"
    value {
      list {
        shape {
        }
      }
    }
  }
  attr {
    key: "dtype"
    value {
      type: DT_INT32
    }
  }
  attr {
    key: "value"
    value {
      tensor {
        dtype: DT_INT32
        tensor_shape {
        }
        int_val: 2
      }
    }
  }
}
node {
  name: "rnn/while/rnn/multi_rnn_cell/cell_1/gru_cell/split/split_dim"
  op: "Const"
  input: "^rnn/while/Identity"
  attr {
    key: "_output_shapes"
    value {
      list {
        shape {
        }
      }
    }
  }
  attr {
    key: "dtype"
    value {
      type: DT_INT32
    }
  }
  attr {
    key: "value"
    value {
      tensor {
        dtype: DT_INT32
        tensor_shape {
        }
        int_val: 1
      }
    }
  }
}
node {
  name: "rnn/while/rnn/multi_rnn_cell/cell_1/gru_cell/split"
  op: "Split"
  input: "rnn/while/rnn/multi_rnn_cell/cell_1/gru_cell/split/split_dim"
  input: "rnn/while/rnn/multi_rnn_cell/cell_1/gru_cell/Sigmoid"
  attr {
    key: "T"
    value {
      type: DT_FLOAT
    }
  }
  attr {
    key: "_output_shapes"
    value {
      list {
        shape {
          dim {
            size: -1
          }
          dim {
            size: 80
          }
        }
        shape {
          dim {
            size: -1
          }
          dim {
            size: 80
          }
        }
      }
    }
  }
  attr {
    key: "num_split"
    value {
      i: 2
    }
  }
}
node {
  name: "rnn/while/rnn/multi_rnn_cell/cell_1/gru_cell/mul"
  op: "Mul"
  input: "rnn/while/rnn/multi_rnn_cell/cell_1/gru_cell/split"
  input: "rnn/while/rnn/multi_rnn_cell/cell_1/Slice"
  attr {
    key: "T"
    value {
      type: DT_FLOAT
    }
  }
  attr {
    key: "_output_shapes"
    value {
      list {
        shape {
          dim {
            size: -1
          }
          dim {
            size: 80
          }
        }
      }
    }
  }
}
node {
  name: "rnn/while/rnn/multi_rnn_cell/cell_1/gru_cell/concat_1/axis"
  op: "Const"
  input: "^rnn/while/Identity"
  attr {
    key: "_output_shapes"
    value {
      list {
        shape {
        }
      }
    }
  }
  attr {
    key: "dtype"
    value {
      type: DT_INT32
    }
  }
  attr {
    key: "value"
    value {
      tensor {
        dtype: DT_INT32
        tensor_shape {
        }
        int_val: 1
      }
    }
  }
}
node {
  name: "rnn/while/rnn/multi_rnn_cell/cell_1/gru_cell/concat_1"
  op: "ConcatV2"
  input: "rnn/while/rnn/multi_rnn_cell/cell_0/dropout/mul"
  input: "rnn/while/rnn/multi_rnn_cell/cell_1/gru_cell/mul"
  input: "rnn/while/rnn/multi_rnn_cell/cell_1/gru_cell/concat_1/axis"
  attr {
    key: "N"
    value {
      i: 2
    }
  }
  attr {
    key: "T"
    value {
      type: DT_FLOAT
    }
  }
  attr {
    key: "Tidx"
    value {
      type: DT_INT32
    }
  }
  attr {
    key: "_output_shapes"
    value {
      list {
        shape {
          dim {
            size: -1
          }
          dim {
            size: 160
          }
        }
      }
    }
  }
}
node {
  name: "rnn/while/rnn/multi_rnn_cell/cell_1/gru_cell/MatMul_1"
  op: "MatMul"
  input: "rnn/while/rnn/multi_rnn_cell/cell_1/gru_cell/concat_1"
  input: "rnn/while/rnn/multi_rnn_cell/cell_1/gru_cell/MatMul_1/Enter"
  attr {
    key: "T"
    value {
      type: DT_FLOAT
    }
  }
  attr {
    key: "_output_shapes"
    value {
      list {
        shape {
          dim {
            size: -1
          }
          dim {
            size: 80
          }
        }
      }
    }
  }
  attr {
    key: "transpose_a"
    value {
      b: false
    }
  }
  attr {
    key: "transpose_b"
    value {
      b: false
    }
  }
}
node {
  name: "rnn/while/rnn/multi_rnn_cell/cell_1/gru_cell/MatMul_1/Enter"
  op: "Enter"
  input: "rnn/multi_rnn_cell/cell_1/gru_cell/candidate/kernel/read"
  attr {
    key: "T"
    value {
      type: DT_FLOAT
    }
  }
  attr {
    key: "_output_shapes"
    value {
      list {
        shape {
          dim {
            size: 160
          }
          dim {
            size: 80
          }
        }
      }
    }
  }
  attr {
    key: "frame_name"
    value {
      s: "rnn/while/while_context"
    }
  }
  attr {
    key: "is_constant"
    value {
      b: true
    }
  }
  attr {
    key: "parallel_iterations"
    value {
      i: 32
    }
  }
}
node {
  name: "rnn/while/rnn/multi_rnn_cell/cell_1/gru_cell/BiasAdd_1"
  op: "BiasAdd"
  input: "rnn/while/rnn/multi_rnn_cell/cell_1/gru_cell/MatMul_1"
  input: "rnn/while/rnn/multi_rnn_cell/cell_1/gru_cell/BiasAdd_1/Enter"
  attr {
    key: "T"
    value {
      type: DT_FLOAT
    }
  }
  attr {
    key: "_output_shapes"
    value {
      list {
        shape {
          dim {
            size: -1
          }
          dim {
            size: 80
          }
        }
      }
    }
  }
  attr {
    key: "data_format"
    value {
      s: "NHWC"
    }
  }
}
node {
  name: "rnn/while/rnn/multi_rnn_cell/cell_1/gru_cell/BiasAdd_1/Enter"
  op: "Enter"
  input: "rnn/multi_rnn_cell/cell_1/gru_cell/candidate/bias/read"
  attr {
    key: "T"
    value {
      type: DT_FLOAT
    }
  }
  attr {
    key: "_output_shapes"
    value {
      list {
        shape {
          dim {
            size: 80
          }
        }
      }
    }
  }
  attr {
    key: "frame_name"
    value {
      s: "rnn/while/while_context"
    }
  }
  attr {
    key: "is_constant"
    value {
      b: true
    }
  }
  attr {
    key: "parallel_iterations"
    value {
      i: 32
    }
  }
}
node {
  name: "rnn/while/rnn/multi_rnn_cell/cell_1/gru_cell/Tanh"
  op: "Tanh"
  input: "rnn/while/rnn/multi_rnn_cell/cell_1/gru_cell/BiasAdd_1"
  attr {
    key: "T"
    value {
      type: DT_FLOAT
    }
  }
  attr {
    key: "_output_shapes"
    value {
      list {
        shape {
          dim {
            size: -1
          }
          dim {
            size: 80
          }
        }
      }
    }
  }
}
node {
  name: "rnn/while/rnn/multi_rnn_cell/cell_1/gru_cell/mul_1"
  op: "Mul"
  input: "rnn/while/rnn/multi_rnn_cell/cell_1/gru_cell/split:1"
  input: "rnn/while/rnn/multi_rnn_cell/cell_1/Slice"
  attr {
    key: "T"
    value {
      type: DT_FLOAT
    }
  }
  attr {
    key: "_output_shapes"
    value {
      list {
        shape {
          dim {
            size: -1
          }
          dim {
            size: 80
          }
        }
      }
    }
  }
}
node {
  name: "rnn/while/rnn/multi_rnn_cell/cell_1/gru_cell/sub/x"
  op: "Const"
  input: "^rnn/while/Identity"
  attr {
    key: "_output_shapes"
    value {
      list {
        shape {
        }
      }
    }
  }
  attr {
    key: "dtype"
    value {
      type: DT_FLOAT
    }
  }
  attr {
    key: "value"
    value {
      tensor {
        dtype: DT_FLOAT
        tensor_shape {
        }
        float_val: 1.0
      }
    }
  }
}
node {
  name: "rnn/while/rnn/multi_rnn_cell/cell_1/gru_cell/sub"
  op: "Sub"
  input: "rnn/while/rnn/multi_rnn_cell/cell_1/gru_cell/sub/x"
  input: "rnn/while/rnn/multi_rnn_cell/cell_1/gru_cell/split:1"
  attr {
    key: "T"
    value {
      type: DT_FLOAT
    }
  }
  attr {
    key: "_output_shapes"
    value {
      list {
        shape {
          dim {
            size: -1
          }
          dim {
            size: 80
          }
        }
      }
    }
  }
}
node {
  name: "rnn/while/rnn/multi_rnn_cell/cell_1/gru_cell/mul_2"
  op: "Mul"
  input: "rnn/while/rnn/multi_rnn_cell/cell_1/gru_cell/sub"
  input: "rnn/while/rnn/multi_rnn_cell/cell_1/gru_cell/Tanh"
  attr {
    key: "T"
    value {
      type: DT_FLOAT
    }
  }
  attr {
    key: "_output_shapes"
    value {
      list {
        shape {
          dim {
            size: -1
          }
          dim {
            size: 80
          }
        }
      }
    }
  }
}
node {
  name: "rnn/while/rnn/multi_rnn_cell/cell_1/gru_cell/add"
  op: "Add"
  input: "rnn/while/rnn/multi_rnn_cell/cell_1/gru_cell/mul_1"
  input: "rnn/while/rnn/multi_rnn_cell/cell_1/gru_cell/mul_2"
  attr {
    key: "T"
    value {
      type: DT_FLOAT
    }
  }
  attr {
    key: "_output_shapes"
    value {
      list {
        shape {
          dim {
            size: -1
          }
          dim {
            size: 80
          }
        }
      }
    }
  }
}
node {
  name: "rnn/while/rnn/multi_rnn_cell/concat/axis"
  op: "Const"
  input: "^rnn/while/Identity"
  attr {
    key: "_output_shapes"
    value {
      list {
        shape {
        }
      }
    }
  }
  attr {
    key: "dtype"
    value {
      type: DT_INT32
    }
  }
  attr {
    key: "value"
    value {
      tensor {
        dtype: DT_INT32
        tensor_shape {
        }
        int_val: 1
      }
    }
  }
}
node {
  name: "rnn/while/rnn/multi_rnn_cell/concat"
  op: "ConcatV2"
  input: "rnn/while/rnn/multi_rnn_cell/cell_0/gru_cell/add"
  input: "rnn/while/rnn/multi_rnn_cell/cell_1/gru_cell/add"
  input: "rnn/while/rnn/multi_rnn_cell/concat/axis"
  attr {
    key: "N"
    value {
      i: 2
    }
  }
  attr {
    key: "T"
    value {
      type: DT_FLOAT
    }
  }
  attr {
    key: "Tidx"
    value {
      type: DT_INT32
    }
  }
  attr {
    key: "_output_shapes"
    value {
      list {
        shape {
          dim {
            size: -1
          }
          dim {
            size: 160
          }
        }
      }
    }
  }
}
node {
  name: "rnn/while/TensorArrayWrite/TensorArrayWriteV3"
  op: "TensorArrayWriteV3"
  input: "rnn/while/TensorArrayWrite/TensorArrayWriteV3/Enter"
  input: "rnn/while/Identity_1"
  input: "rnn/while/rnn/multi_rnn_cell/cell_1/gru_cell/add"
  input: "rnn/while/Identity_2"
  attr {
    key: "T"
    value {
      type: DT_FLOAT
    }
  }
  attr {
    key: "_class"
    value {
      list {
        s: "loc:@rnn/while/rnn/multi_rnn_cell/cell_1/gru_cell/add"
      }
    }
  }
  attr {
    key: "_output_shapes"
    value {
      list {
        shape {
        }
      }
    }
  }
}
node {
  name: "rnn/while/TensorArrayWrite/TensorArrayWriteV3/Enter"
  op: "Enter"
  input: "rnn/TensorArray"
  attr {
    key: "T"
    value {
      type: DT_RESOURCE
    }
  }
  attr {
    key: "_class"
    value {
      list {
        s: "loc:@rnn/while/rnn/multi_rnn_cell/cell_1/gru_cell/add"
      }
    }
  }
  attr {
    key: "_output_shapes"
    value {
      list {
        shape {
          dim {
            size: 2
          }
        }
      }
    }
  }
  attr {
    key: "frame_name"
    value {
      s: "rnn/while/while_context"
    }
  }
  attr {
    key: "is_constant"
    value {
      b: true
    }
  }
  attr {
    key: "parallel_iterations"
    value {
      i: 32
    }
  }
}
node {
  name: "rnn/while/add_1/y"
  op: "Const"
  input: "^rnn/while/Identity"
  attr {
    key: "_output_shapes"
    value {
      list {
        shape {
        }
      }
    }
  }
  attr {
    key: "dtype"
    value {
      type: DT_INT32
    }
  }
  attr {
    key: "value"
    value {
      tensor {
        dtype: DT_INT32
        tensor_shape {
        }
        int_val: 1
      }
    }
  }
}
node {
  name: "rnn/while/add_1"
  op: "Add"
  input: "rnn/while/Identity_1"
  input: "rnn/while/add_1/y"
  attr {
    key: "T"
    value {
      type: DT_INT32
    }
  }
  attr {
    key: "_output_shapes"
    value {
      list {
        shape {
        }
      }
    }
  }
}
node {
  name: "rnn/while/NextIteration"
  op: "NextIteration"
  input: "rnn/while/add"
  attr {
    key: "T"
    value {
      type: DT_INT32
    }
  }
  attr {
    key: "_output_shapes"
    value {
      list {
        shape {
        }
      }
    }
  }
}
node {
  name: "rnn/while/NextIteration_1"
  op: "NextIteration"
  input: "rnn/while/add_1"
  attr {
    key: "T"
    value {
      type: DT_INT32
    }
  }
  attr {
    key: "_output_shapes"
    value {
      list {
        shape {
        }
      }
    }
  }
}
node {
  name: "rnn/while/NextIteration_2"
  op: "NextIteration"
  input: "rnn/while/TensorArrayWrite/TensorArrayWriteV3"
  attr {
    key: "T"
    value {
      type: DT_FLOAT
    }
  }
  attr {
    key: "_output_shapes"
    value {
      list {
        shape {
        }
      }
    }
  }
}
node {
  name: "rnn/while/NextIteration_3"
  op: "NextIteration"
  input: "rnn/while/rnn/multi_rnn_cell/concat"
  attr {
    key: "T"
    value {
      type: DT_FLOAT
    }
  }
  attr {
    key: "_output_shapes"
    value {
      list {
        shape {
          dim {
            size: -1
          }
          dim {
            size: 160
          }
        }
      }
    }
  }
}
node {
  name: "rnn/while/Exit"
  op: "Exit"
  input: "rnn/while/Switch"
  attr {
    key: "T"
    value {
      type: DT_INT32
    }
  }
  attr {
    key: "_output_shapes"
    value {
      list {
        shape {
        }
      }
    }
  }
}
node {
  name: "rnn/while/Exit_1"
  op: "Exit"
  input: "rnn/while/Switch_1"
  attr {
    key: "T"
    value {
      type: DT_INT32
    }
  }
  attr {
    key: "_output_shapes"
    value {
      list {
        shape {
        }
      }
    }
  }
}
node {
  name: "rnn/while/Exit_2"
  op: "Exit"
  input: "rnn/while/Switch_2"
  attr {
    key: "T"
    value {
      type: DT_FLOAT
    }
  }
  attr {
    key: "_output_shapes"
    value {
      list {
        shape {
        }
      }
    }
  }
}
node {
  name: "rnn/while/Exit_3"
  op: "Exit"
  input: "rnn/while/Switch_3"
  attr {
    key: "T"
    value {
      type: DT_FLOAT
    }
  }
  attr {
    key: "_output_shapes"
    value {
      list {
        shape {
          dim {
            size: -1
          }
          dim {
            size: 160
          }
        }
      }
    }
  }
}
node {
  name: "rnn/TensorArrayStack/TensorArraySizeV3"
  op: "TensorArraySizeV3"
  input: "rnn/TensorArray"
  input: "rnn/while/Exit_2"
  attr {
    key: "_class"
    value {
      list {
        s: "loc:@rnn/TensorArray"
      }
    }
  }
  attr {
    key: "_output_shapes"
    value {
      list {
        shape {
        }
      }
    }
  }
}
node {
  name: "rnn/TensorArrayStack/range/start"
  op: "Const"
  attr {
    key: "_class"
    value {
      list {
        s: "loc:@rnn/TensorArray"
      }
    }
  }
  attr {
    key: "_output_shapes"
    value {
      list {
        shape {
        }
      }
    }
  }
  attr {
    key: "dtype"
    value {
      type: DT_INT32
    }
  }
  attr {
    key: "value"
    value {
      tensor {
        dtype: DT_INT32
        tensor_shape {
        }
        int_val: 0
      }
    }
  }
}
node {
  name: "rnn/TensorArrayStack/range/delta"
  op: "Const"
  attr {
    key: "_class"
    value {
      list {
        s: "loc:@rnn/TensorArray"
      }
    }
  }
  attr {
    key: "_output_shapes"
    value {
      list {
        shape {
        }
      }
    }
  }
  attr {
    key: "dtype"
    value {
      type: DT_INT32
    }
  }
  attr {
    key: "value"
    value {
      tensor {
        dtype: DT_INT32
        tensor_shape {
        }
        int_val: 1
      }
    }
  }
}
node {
  name: "rnn/TensorArrayStack/range"
  op: "Range"
  input: "rnn/TensorArrayStack/range/start"
  input: "rnn/TensorArrayStack/TensorArraySizeV3"
  input: "rnn/TensorArrayStack/range/delta"
  attr {
    key: "Tidx"
    value {
      type: DT_INT32
    }
  }
  attr {
    key: "_class"
    value {
      list {
        s: "loc:@rnn/TensorArray"
      }
    }
  }
  attr {
    key: "_output_shapes"
    value {
      list {
        shape {
          dim {
            size: -1
          }
        }
      }
    }
  }
}
node {
  name: "rnn/TensorArrayStack/TensorArrayGatherV3"
  op: "TensorArrayGatherV3"
  input: "rnn/TensorArray"
  input: "rnn/TensorArrayStack/range"
  input: "rnn/while/Exit_2"
  attr {
    key: "_class"
    value {
      list {
        s: "loc:@rnn/TensorArray"
      }
    }
  }
  attr {
    key: "_output_shapes"
    value {
      list {
        shape {
          dim {
            size: 10
          }
          dim {
            size: -1
          }
          dim {
            size: 80
          }
        }
      }
    }
  }
  attr {
    key: "dtype"
    value {
      type: DT_FLOAT
    }
  }
  attr {
    key: "element_shape"
    value {
      shape {
        dim {
          size: -1
        }
        dim {
          size: 80
        }
      }
    }
  }
}
node {
  name: "rnn/Const_1"
  op: "Const"
  attr {
    key: "_output_shapes"
    value {
      list {
        shape {
          dim {
            size: 1
          }
        }
      }
    }
  }
  attr {
    key: "dtype"
    value {
      type: DT_INT32
    }
  }
  attr {
    key: "value"
    value {
      tensor {
        dtype: DT_INT32
        tensor_shape {
          dim {
            size: 1
          }
        }
        int_val: 80
      }
    }
  }
}
node {
  name: "rnn/Rank_1"
  op: "Const"
  attr {
    key: "_output_shapes"
    value {
      list {
        shape {
        }
      }
    }
  }
  attr {
    key: "dtype"
    value {
      type: DT_INT32
    }
  }
  attr {
    key: "value"
    value {
      tensor {
        dtype: DT_INT32
        tensor_shape {
        }
        int_val: 3
      }
    }
  }
}
node {
  name: "rnn/range_1/start"
  op: "Const"
  attr {
    key: "_output_shapes"
    value {
      list {
        shape {
        }
      }
    }
  }
  attr {
    key: "dtype"
    value {
      type: DT_INT32
    }
  }
  attr {
    key: "value"
    value {
      tensor {
        dtype: DT_INT32
        tensor_shape {
        }
        int_val: 2
      }
    }
  }
}
node {
  name: "rnn/range_1/delta"
  op: "Const"
  attr {
    key: "_output_shapes"
    value {
      list {
        shape {
        }
      }
    }
  }
  attr {
    key: "dtype"
    value {
      type: DT_INT32
    }
  }
  attr {
    key: "value"
    value {
      tensor {
        dtype: DT_INT32
        tensor_shape {
        }
        int_val: 1
      }
    }
  }
}
node {
  name: "rnn/range_1"
  op: "Range"
  input: "rnn/range_1/start"
  input: "rnn/Rank_1"
  input: "rnn/range_1/delta"
  attr {
    key: "Tidx"
    value {
      type: DT_INT32
    }
  }
  attr {
    key: "_output_shapes"
    value {
      list {
        shape {
          dim {
            size: 1
          }
        }
      }
    }
  }
}
node {
  name: "rnn/concat_2/values_0"
  op: "Const"
  attr {
    key: "_output_shapes"
    value {
      list {
        shape {
          dim {
            size: 2
          }
        }
      }
    }
  }
  attr {
    key: "dtype"
    value {
      type: DT_INT32
    }
  }
  attr {
    key: "value"
    value {
      tensor {
        dtype: DT_INT32
        tensor_shape {
          dim {
            size: 2
          }
        }
        tensor_content: "\001\000\000\000\000\000\000\000"
      }
    }
  }
}
node {
  name: "rnn/concat_2/axis"
  op: "Const"
  attr {
    key: "_output_shapes"
    value {
      list {
        shape {
        }
      }
    }
  }
  attr {
    key: "dtype"
    value {
      type: DT_INT32
    }
  }
  attr {
    key: "value"
    value {
      tensor {
        dtype: DT_INT32
        tensor_shape {
        }
        int_val: 0
      }
    }
  }
}
node {
  name: "rnn/concat_2"
  op: "ConcatV2"
  input: "rnn/concat_2/values_0"
  input: "rnn/range_1"
  input: "rnn/concat_2/axis"
  attr {
    key: "N"
    value {
      i: 2
    }
  }
  attr {
    key: "T"
    value {
      type: DT_INT32
    }
  }
  attr {
    key: "Tidx"
    value {
      type: DT_INT32
    }
  }
  attr {
    key: "_output_shapes"
    value {
      list {
        shape {
          dim {
            size: 3
          }
        }
      }
    }
  }
}
node {
  name: "rnn/transpose_1"
  op: "Transpose"
  input: "rnn/TensorArrayStack/TensorArrayGatherV3"
  input: "rnn/concat_2"
  attr {
    key: "T"
    value {
      type: DT_FLOAT
    }
  }
  attr {
    key: "Tperm"
    value {
      type: DT_INT32
    }
  }
  attr {
    key: "_output_shapes"
    value {
      list {
        shape {
          dim {
            size: -1
          }
          dim {
            size: 10
          }
          dim {
            size: 80
          }
        }
      }
    }
  }
}
node {
  name: "mul"
  op: "Mul"
  input: "strided_slice"
  input: "strided_slice_1"
  attr {
    key: "T"
    value {
      type: DT_INT32
    }
  }
  attr {
    key: "_output_shapes"
    value {
      list {
        shape {
        }
      }
    }
  }
}
node {
  name: "Reshape/shape/1"
  op: "Const"
  attr {
    key: "_output_shapes"
    value {
      list {
        shape {
        }
      }
    }
  }
  attr {
    key: "dtype"
    value {
      type: DT_INT32
    }
  }
  attr {
    key: "value"
    value {
      tensor {
        dtype: DT_INT32
        tensor_shape {
        }
        int_val: 80
      }
    }
  }
}
node {
  name: "Reshape/shape"
  op: "Pack"
  input: "mul"
  input: "Reshape/shape/1"
  attr {
    key: "N"
    value {
      i: 2
    }
  }
  attr {
    key: "T"
    value {
      type: DT_INT32
    }
  }
  attr {
    key: "_output_shapes"
    value {
      list {
        shape {
          dim {
            size: 2
          }
        }
      }
    }
  }
  attr {
    key: "axis"
    value {
      i: 0
    }
  }
}
node {
  name: "Reshape"
  op: "Reshape"
  input: "rnn/transpose_1"
  input: "Reshape/shape"
  attr {
    key: "T"
    value {
      type: DT_FLOAT
    }
  }
  attr {
    key: "Tshape"
    value {
      type: DT_INT32
    }
  }
  attr {
    key: "_output_shapes"
    value {
      list {
        shape {
          dim {
            size: -1
          }
          dim {
            size: 80
          }
        }
      }
    }
  }
}
node {
  name: "dense/kernel/Initializer/random_uniform/shape"
  op: "Const"
  attr {
    key: "_class"
    value {
      list {
        s: "loc:@dense/kernel"
      }
    }
  }
  attr {
    key: "_output_shapes"
    value {
      list {
        shape {
          dim {
            size: 2
          }
        }
      }
    }
  }
  attr {
    key: "dtype"
    value {
      type: DT_INT32
    }
  }
  attr {
    key: "value"
    value {
      tensor {
        dtype: DT_INT32
        tensor_shape {
          dim {
            size: 2
          }
        }
        tensor_content: "P\000\000\000\001\000\000\000"
      }
    }
  }
}
node {
  name: "dense/kernel/Initializer/random_uniform/min"
  op: "Const"
  attr {
    key: "_class"
    value {
      list {
        s: "loc:@dense/kernel"
      }
    }
  }
  attr {
    key: "_output_shapes"
    value {
      list {
        shape {
        }
      }
    }
  }
  attr {
    key: "dtype"
    value {
      type: DT_FLOAT
    }
  }
  attr {
    key: "value"
    value {
      tensor {
        dtype: DT_FLOAT
        tensor_shape {
        }
        float_val: -0.27216553688049316
      }
    }
  }
}
node {
  name: "dense/kernel/Initializer/random_uniform/max"
  op: "Const"
  attr {
    key: "_class"
    value {
      list {
        s: "loc:@dense/kernel"
      }
    }
  }
  attr {
    key: "_output_shapes"
    value {
      list {
        shape {
        }
      }
    }
  }
  attr {
    key: "dtype"
    value {
      type: DT_FLOAT
    }
  }
  attr {
    key: "value"
    value {
      tensor {
        dtype: DT_FLOAT
        tensor_shape {
        }
        float_val: 0.27216553688049316
      }
    }
  }
}
node {
  name: "dense/kernel/Initializer/random_uniform/RandomUniform"
  op: "RandomUniform"
  input: "dense/kernel/Initializer/random_uniform/shape"
  attr {
    key: "T"
    value {
      type: DT_INT32
    }
  }
  attr {
    key: "_class"
    value {
      list {
        s: "loc:@dense/kernel"
      }
    }
  }
  attr {
    key: "_output_shapes"
    value {
      list {
        shape {
          dim {
            size: 80
          }
          dim {
            size: 1
          }
        }
      }
    }
  }
  attr {
    key: "dtype"
    value {
      type: DT_FLOAT
    }
  }
  attr {
    key: "seed"
    value {
      i: 0
    }
  }
  attr {
    key: "seed2"
    value {
      i: 0
    }
  }
}
node {
  name: "dense/kernel/Initializer/random_uniform/sub"
  op: "Sub"
  input: "dense/kernel/Initializer/random_uniform/max"
  input: "dense/kernel/Initializer/random_uniform/min"
  attr {
    key: "T"
    value {
      type: DT_FLOAT
    }
  }
  attr {
    key: "_class"
    value {
      list {
        s: "loc:@dense/kernel"
      }
    }
  }
  attr {
    key: "_output_shapes"
    value {
      list {
        shape {
        }
      }
    }
  }
}
node {
  name: "dense/kernel/Initializer/random_uniform/mul"
  op: "Mul"
  input: "dense/kernel/Initializer/random_uniform/RandomUniform"
  input: "dense/kernel/Initializer/random_uniform/sub"
  attr {
    key: "T"
    value {
      type: DT_FLOAT
    }
  }
  attr {
    key: "_class"
    value {
      list {
        s: "loc:@dense/kernel"
      }
    }
  }
  attr {
    key: "_output_shapes"
    value {
      list {
        shape {
          dim {
            size: 80
          }
          dim {
            size: 1
          }
        }
      }
    }
  }
}
node {
  name: "dense/kernel/Initializer/random_uniform"
  op: "Add"
  input: "dense/kernel/Initializer/random_uniform/mul"
  input: "dense/kernel/Initializer/random_uniform/min"
  attr {
    key: "T"
    value {
      type: DT_FLOAT
    }
  }
  attr {
    key: "_class"
    value {
      list {
        s: "loc:@dense/kernel"
      }
    }
  }
  attr {
    key: "_output_shapes"
    value {
      list {
        shape {
          dim {
            size: 80
          }
          dim {
            size: 1
          }
        }
      }
    }
  }
}
node {
  name: "dense/kernel"
  op: "VariableV2"
  attr {
    key: "_class"
    value {
      list {
        s: "loc:@dense/kernel"
      }
    }
  }
  attr {
    key: "_output_shapes"
    value {
      list {
        shape {
          dim {
            size: 80
          }
          dim {
            size: 1
          }
        }
      }
    }
  }
  attr {
    key: "container"
    value {
      s: ""
    }
  }
  attr {
    key: "dtype"
    value {
      type: DT_FLOAT
    }
  }
  attr {
    key: "shape"
    value {
      shape {
        dim {
          size: 80
        }
        dim {
          size: 1
        }
      }
    }
  }
  attr {
    key: "shared_name"
    value {
      s: ""
    }
  }
}
node {
  name: "dense/kernel/Assign"
  op: "Assign"
  input: "dense/kernel"
  input: "dense/kernel/Initializer/random_uniform"
  attr {
    key: "T"
    value {
      type: DT_FLOAT
    }
  }
  attr {
    key: "_class"
    value {
      list {
        s: "loc:@dense/kernel"
      }
    }
  }
  attr {
    key: "_output_shapes"
    value {
      list {
        shape {
          dim {
            size: 80
          }
          dim {
            size: 1
          }
        }
      }
    }
  }
  attr {
    key: "use_locking"
    value {
      b: true
    }
  }
  attr {
    key: "validate_shape"
    value {
      b: true
    }
  }
}
node {
  name: "dense/kernel/read"
  op: "Identity"
  input: "dense/kernel"
  attr {
    key: "T"
    value {
      type: DT_FLOAT
    }
  }
  attr {
    key: "_class"
    value {
      list {
        s: "loc:@dense/kernel"
      }
    }
  }
  attr {
    key: "_output_shapes"
    value {
      list {
        shape {
          dim {
            size: 80
          }
          dim {
            size: 1
          }
        }
      }
    }
  }
}
node {
  name: "dense/bias/Initializer/zeros"
  op: "Const"
  attr {
    key: "_class"
    value {
      list {
        s: "loc:@dense/bias"
      }
    }
  }
  attr {
    key: "_output_shapes"
    value {
      list {
        shape {
          dim {
            size: 1
          }
        }
      }
    }
  }
  attr {
    key: "dtype"
    value {
      type: DT_FLOAT
    }
  }
  attr {
    key: "value"
    value {
      tensor {
        dtype: DT_FLOAT
        tensor_shape {
          dim {
            size: 1
          }
        }
        float_val: 0.0
      }
    }
  }
}
node {
  name: "dense/bias"
  op: "VariableV2"
  attr {
    key: "_class"
    value {
      list {
        s: "loc:@dense/bias"
      }
    }
  }
  attr {
    key: "_output_shapes"
    value {
      list {
        shape {
          dim {
            size: 1
          }
        }
      }
    }
  }
  attr {
    key: "container"
    value {
      s: ""
    }
  }
  attr {
    key: "dtype"
    value {
      type: DT_FLOAT
    }
  }
  attr {
    key: "shape"
    value {
      shape {
        dim {
          size: 1
        }
      }
    }
  }
  attr {
    key: "shared_name"
    value {
      s: ""
    }
  }
}
node {
  name: "dense/bias/Assign"
  op: "Assign"
  input: "dense/bias"
  input: "dense/bias/Initializer/zeros"
  attr {
    key: "T"
    value {
      type: DT_FLOAT
    }
  }
  attr {
    key: "_class"
    value {
      list {
        s: "loc:@dense/bias"
      }
    }
  }
  attr {
    key: "_output_shapes"
    value {
      list {
        shape {
          dim {
            size: 1
          }
        }
      }
    }
  }
  attr {
    key: "use_locking"
    value {
      b: true
    }
  }
  attr {
    key: "validate_shape"
    value {
      b: true
    }
  }
}
node {
  name: "dense/bias/read"
  op: "Identity"
  input: "dense/bias"
  attr {
    key: "T"
    value {
      type: DT_FLOAT
    }
  }
  attr {
    key: "_class"
    value {
      list {
        s: "loc:@dense/bias"
      }
    }
  }
  attr {
    key: "_output_shapes"
    value {
      list {
        shape {
          dim {
            size: 1
          }
        }
      }
    }
  }
}
node {
  name: "dense/MatMul"
  op: "MatMul"
  input: "Reshape"
  input: "dense/kernel/read"
  attr {
    key: "T"
    value {
      type: DT_FLOAT
    }
  }
  attr {
    key: "_output_shapes"
    value {
      list {
        shape {
          dim {
            size: -1
          }
          dim {
            size: 1
          }
        }
      }
    }
  }
  attr {
    key: "transpose_a"
    value {
      b: false
    }
  }
  attr {
    key: "transpose_b"
    value {
      b: false
    }
  }
}
node {
  name: "dense/BiasAdd"
  op: "BiasAdd"
  input: "dense/MatMul"
  input: "dense/bias/read"
  attr {
    key: "T"
    value {
      type: DT_FLOAT
    }
  }
  attr {
    key: "_output_shapes"
    value {
      list {
        shape {
          dim {
            size: -1
          }
          dim {
            size: 1
          }
        }
      }
    }
  }
  attr {
    key: "data_format"
    value {
      s: "NHWC"
    }
  }
}
node {
  name: "Reshape_1/shape/2"
  op: "Const"
  attr {
    key: "_output_shapes"
    value {
      list {
        shape {
        }
      }
    }
  }
  attr {
    key: "dtype"
    value {
      type: DT_INT32
    }
  }
  attr {
    key: "value"
    value {
      tensor {
        dtype: DT_INT32
        tensor_shape {
        }
        int_val: 1
      }
    }
  }
}
node {
  name: "Reshape_1/shape"
  op: "Pack"
  input: "strided_slice"
  input: "strided_slice_1"
  input: "Reshape_1/shape/2"
  attr {
    key: "N"
    value {
      i: 3
    }
  }
  attr {
    key: "T"
    value {
      type: DT_INT32
    }
  }
  attr {
    key: "_output_shapes"
    value {
      list {
        shape {
          dim {
            size: 3
          }
        }
      }
    }
  }
  attr {
    key: "axis"
    value {
      i: 0
    }
  }
}
node {
  name: "Reshape_1"
  op: "Reshape"
  input: "dense/BiasAdd"
  input: "Reshape_1/shape"
  attr {
    key: "T"
    value {
      type: DT_FLOAT
    }
  }
  attr {
    key: "Tshape"
    value {
      type: DT_INT32
    }
  }
  attr {
    key: "_output_shapes"
    value {
      list {
        shape {
          dim {
            size: -1
          }
          dim {
            size: -1
          }
          dim {
            size: 1
          }
        }
      }
    }
  }
}
node {
  name: "strided_slice_2/stack"
  op: "Const"
  attr {
    key: "_output_shapes"
    value {
      list {
        shape {
          dim {
            size: 3
          }
        }
      }
    }
  }
  attr {
    key: "dtype"
    value {
      type: DT_INT32
    }
  }
  attr {
    key: "value"
    value {
      tensor {
        dtype: DT_INT32
        tensor_shape {
          dim {
            size: 3
          }
        }
        tensor_content: "\000\000\000\000\377\377\377\377\000\000\000\000"
      }
    }
  }
}
node {
  name: "strided_slice_2/stack_1"
  op: "Const"
  attr {
    key: "_output_shapes"
    value {
      list {
        shape {
          dim {
            size: 3
          }
        }
      }
    }
  }
  attr {
    key: "dtype"
    value {
      type: DT_INT32
    }
  }
  attr {
    key: "value"
    value {
      tensor {
        dtype: DT_INT32
        tensor_shape {
          dim {
            size: 3
          }
        }
        tensor_content: "\000\000\000\000\000\000\000\000\000\000\000\000"
      }
    }
  }
}
node {
  name: "strided_slice_2/stack_2"
  op: "Const"
  attr {
    key: "_output_shapes"
    value {
      list {
        shape {
          dim {
            size: 3
          }
        }
      }
    }
  }
  attr {
    key: "dtype"
    value {
…
      list {
        shape {
          dim {
            size: 1
          }
        }
      }
    }
  }
}
node {
  name: "report_uninitialized_variables_1/boolean_mask/Reshape"
  op: "Reshape"
  input: "report_uninitialized_variables_1/Const"
  input: "report_uninitialized_variables_1/boolean_mask/concat"
  device: "/device:CPU:0"
  attr {
    key: "T"
    value {
      type: DT_STRING
    }
  }
  attr {
    key: "Tshape"
    value {
      type: DT_INT32
    }
  }
  attr {
    key: "_output_shapes"
    value {
      list {
        shape {
          dim {
            size: 33
          }
        }
      }
    }
  }
}
node {
  name: "report_uninitialized_variables_1/boolean_mask/Reshape_1/shape"
  op: "Const"
  device: "/device:CPU:0"
  attr {
    key: "_output_shapes"
    value {
      list {
        shape {
          dim {
            size: 1
          }
        }
      }
    }
  }
  attr {
    key: "dtype"
    value {
      type: DT_INT32
    }
  }
  attr {
    key: "value"
    value {
      tensor {
        dtype: DT_INT32
        tensor_shape {
          dim {
            size: 1
          }
        }
        int_val: -1
      }
    }
  }
}
node {
  name: "report_uninitialized_variables_1/boolean_mask/Reshape_1"
  op: "Reshape"
  input: "report_uninitialized_variables_1/LogicalNot"
  input: "report_uninitialized_variables_1/boolean_mask/Reshape_1/shape"
  device: "/device:CPU:0"
  attr {
    key: "T"
    value {
      type: DT_BOOL
    }
  }
  attr {
    key: "Tshape"
    value {
      type: DT_INT32
    }
  }
  attr {
    key: "_output_shapes"
    value {
      list {
        shape {
          dim {
            size: 33
          }
        }
      }
    }
  }
}
node {
  name: "report_uninitialized_variables_1/boolean_mask/Where"
  op: "Where"
  input: "report_uninitialized_variables_1/boolean_mask/Reshape_1"
  device: "/device:CPU:0"
  attr {
    key: "T"
    value {
      type: DT_BOOL
    }
  }
  attr {
    key: "_output_shapes"
    value {
      list {
        shape {
          dim {
            size: -1
          }
          dim {
            size: 1
          }
        }
      }
    }
  }
}
node {
  name: "report_uninitialized_variables_1/boolean_mask/Squeeze"
  op: "Squeeze"
  input: "report_uninitialized_variables_1/boolean_mask/Where"
  device: "/device:CPU:0"
  attr {
    key: "T"
    value {
      type: DT_INT64
    }
  }
  attr {
    key: "_output_shapes"
    value {
      list {
        shape {
          dim {
            size: -1
          }
        }
      }
    }
  }
  attr {
    key: "squeeze_dims"
    value {
      list {
        i: 1
      }
    }
  }
}
node {
  name: "report_uninitialized_variables_1/boolean_mask/GatherV2/axis"
  op: "Const"
  device: "/device:CPU:0"
  attr {
    key: "_output_shapes"
    value {
      list {
        shape {
        }
      }
    }
  }
  attr {
    key: "dtype"
    value {
      type: DT_INT32
    }
  }
  attr {
    key: "value"
    value {
      tensor {
        dtype: DT_INT32
        tensor_shape {
        }
        int_val: 0
      }
    }
  }
}
node {
  name: "report_uninitialized_variables_1/boolean_mask/GatherV2"
  op: "GatherV2"
  input: "report_uninitialized_variables_1/boolean_mask/Reshape"
  input: "report_uninitialized_variables_1/boolean_mask/Squeeze"
  input: "report_uninitialized_variables_1/boolean_mask/GatherV2/axis"
  device: "/device:CPU:0"
  attr {
    key: "Taxis"
    value {
      type: DT_INT32
    }
  }
  attr {
    key: "Tindices"
    value {
      type: DT_INT64
    }
  }
  attr {
    key: "Tparams"
    value {
      type: DT_STRING
    }
  }
  attr {
    key: "_output_shapes"
    value {
      list {
        shape {
          dim {
            size: -1
          }
        }
      }
    }
  }
}
node {
  name: "init_2"
  op: "NoOp"
}
node {
  name: "init_all_tables"
  op: "NoOp"
}
node {
  name: "init_3"
  op: "NoOp"
}
node {
  name: "group_deps_1"
  op: "NoOp"
  input: "^init_2"
  input: "^init_3"
  input: "^init_all_tables"
}
node {
  name: "Merge/MergeSummary"
  op: "MergeSummary"
  input: "loss"
  attr {
    key: "N"
    value {
      i: 1
    }
  }
  attr {
    key: "_output_shapes"
    value {
      list {
        shape {
        }
      }
    }
  }
}
node {
  name: "save/Const"
  op: "Const"
  attr {
    key: "_output_shapes"
    value {
      list {
        shape {
        }
      }
    }
  }
  attr {
    key: "dtype"
    value {
      type: DT_STRING
    }
  }
  attr {
    key: "value"
    value {
      tensor {
        dtype: DT_STRING
        tensor_shape {
        }
        string_val: "model"
      }
    }
  }
}
node {
  name: "save/StringJoin/inputs_1"
  op: "Const"
  attr {
    key: "_output_shapes"
    value {
      list {
        shape {
        }
      }
    }
  }
  attr {
    key: "dtype"
    value {
      type: DT_STRING
    }
  }
  attr {
    key: "value"
    value {
      tensor {
        dtype: DT_STRING
        tensor_shape {
        }
        string_val: "_temp_50853e5df98341448e2851c1a718d856/part"
      }
    }
  }
}
node {
  name: "save/StringJoin"
  op: "StringJoin"
  input: "save/Const"
  input: "save/StringJoin/inputs_1"
  attr {
    key: "N"
    value {
      i: 2
    }
  }
  attr {
    key: "_output_shapes"
    value {
      list {
        shape {
        }
      }
    }
  }
  attr {
    key: "separator"
    value {
      s: ""
    }
  }
}
node {
  name: "save/num_shards"
  op: "Const"
  attr {
    key: "_output_shapes"
    value {
      list {
        shape {
        }
      }
    }
  }
  attr {
    key: "dtype"
    value {
      type: DT_INT32
    }
  }
  attr {
    key: "value"
    value {
      tensor {
        dtype: DT_INT32
        tensor_shape {
        }
        int_val: 1
      }
    }
  }
}
node {
  name: "save/ShardedFilename/shard"
  op: "Const"
  device: "/device:CPU:0"
  attr {
    key: "_output_shapes"
    value {
      list {
        shape {
        }
      }
    }
  }
  attr {
    key: "dtype"
    value {
      type: DT_INT32
    }
  }
  attr {
    key: "value"
    value {
      tensor {
        dtype: DT_INT32
        tensor_shape {
        }
        int_val: 0
      }
    }
  }
}
node {
  name: "save/ShardedFilename"
  op: "ShardedFilename"
  input: "save/StringJoin"
  input: "save/ShardedFilename/shard"
  input: "save/num_shards"
  device: "/device:CPU:0"
  attr {
    key: "_output_shapes"
    value {
      list {
        shape {
        }
      }
    }
  }
}
node {
  name: "save/SaveV2/tensor_names"
  op: "Const"
  device: "/device:CPU:0"
  attr {
    key: "_output_shapes"
    value {
      list {
        shape {
          dim {
            size: 33
          }
        }
      }
    }
  }
  attr {
    key: "dtype"
    value {
      type: DT_STRING
    }
  }
  attr {
    key: "value"
    value {
      tensor {
        dtype: DT_STRING
        tensor_shape {
          dim {
            size: 33
          }
        }
        string_val: "beta1_power"
        string_val: "beta2_power"
        string_val: "dense/bias"
        string_val: "dense/bias/Adam"
        string_val: "dense/bias/Adam_1"
        string_val: "dense/kernel"
        string_val: "dense/kernel/Adam"
        string_val: "dense/kernel/Adam_1"
        string_val: "global_step"
        string_val: "rnn/multi_rnn_cell/cell_0/gru_cell/candidate/bias"
        string_val: "rnn/multi_rnn_cell/cell_0/gru_cell/candidate/bias/Adam"
        string_val: "rnn/multi_rnn_cell/cell_0/gru_cell/candidate/bias/Adam_1"
        string_val: "rnn/multi_rnn_cell/cell_0/gru_cell/candidate/kernel"
        string_val: "rnn/multi_rnn_cell/cell_0/gru_cell/candidate/kernel/Adam"
        string_val: "rnn/multi_rnn_cell/cell_0/gru_cell/candidate/kernel/Adam_1"
        string_val: "rnn/multi_rnn_cell/cell_0/gru_cell/gates/bias"
        string_val: "rnn/multi_rnn_cell/cell_0/gru_cell/gates/bias/Adam"
        string_val: "rnn/multi_rnn_cell/cell_0/gru_cell/gates/bias/Adam_1"
        string_val: "rnn/multi_rnn_cell/cell_0/gru_cell/gates/kernel"
        string_val: "rnn/multi_rnn_cell/cell_0/gru_cell/gates/kernel/Adam"
        string_val: "rnn/multi_rnn_cell/cell_0/gru_cell/gates/kernel/Adam_1"
        string_val: "rnn/multi_rnn_cell/cell_1/gru_cell/candidate/bias"
        string_val: "rnn/multi_rnn_cell/cell_1/gru_cell/candidate/bias/Adam"
        string_val: "rnn/multi_rnn_cell/cell_1/gru_cell/candidate/bias/Adam_1"
        string_val: "rnn/multi_rnn_cell/cell_1/gru_cell/candidate/kernel"
        string_val: "rnn/multi_rnn_cell/cell_1/gru_cell/candidate/kernel/Adam"
        string_val: "rnn/multi_rnn_cell/cell_1/gru_cell/candidate/kernel/Adam_1"
        string_val: "rnn/multi_rnn_cell/cell_1/gru_cell/gates/bias"
        string_val: "rnn/multi_rnn_cell/cell_1/gru_cell/gates/bias/Adam"
        string_val: "rnn/multi_rnn_cell/cell_1/gru_cell/gates/bias/Adam_1"
        string_val: "rnn/multi_rnn_cell/cell_1/gru_cell/gates/kernel"
        string_val: "rnn/multi_rnn_cell/cell_1/gru_cell/gates/kernel/Adam"
        string_val: "rnn/multi_rnn_cell/cell_1/gru_cell/gates/kernel/Adam_1"
      }
    }
  }
}
node {
  name: "save/SaveV2/shape_and_slices"
  op: "Const"
  device: "/device:CPU:0"
  attr {
    key: "_output_shapes"
    value {
      list {
        shape {
          dim {
            size: 33
          }
        }
      }
    }
  }
  attr {
    key: "dtype"
    value {
      type: DT_STRING
    }
  }
  attr {
    key: "value"
    value {
      tensor {
        dtype: DT_STRING
        tensor_shape {
          dim {
            size: 33
          }
        }
        string_val: ""
        string_val: ""
        string_val: ""
        string_val: ""
        string_val: ""
        string_val: ""
        string_val: ""
        string_val: ""
        string_val: ""
        string_val: ""
        string_val: ""
        string_val: ""
        string_val: ""
        string_val: ""
        string_val: ""
        string_val: ""
        string_val: ""
        string_val: ""
        string_val: ""
        string_val: ""
        string_val: ""
        string_val: ""
        string_val: ""
        string_val: ""
        string_val: ""
        string_val: ""
        string_val: ""
        string_val: ""
        string_val: ""
        string_val: ""
        string_val: ""
        string_val: ""
        string_val: ""
      }
    }
  }
}
node {
  name: "save/SaveV2"
  op: "SaveV2"
  input: "save/ShardedFilename"
  input: "save/SaveV2/tensor_names"
  input: "save/SaveV2/shape_and_slices"
  input: "beta1_power"
  input: "beta2_power"
  input: "dense/bias"
  input: "dense/bias/Adam"
  input: "dense/bias/Adam_1"
  input: "dense/kernel"
  input: "dense/kernel/Adam"
  input: "dense/kernel/Adam_1"
  input: "global_step"
  input: "rnn/multi_rnn_cell/cell_0/gru_cell/candidate/bias"
  input: "rnn/multi_rnn_cell/cell_0/gru_cell/candidate/bias/Adam"
  input: "rnn/multi_rnn_cell/cell_0/gru_cell/candidate/bias/Adam_1"
  input: "rnn/multi_rnn_cell/cell_0/gru_cell/candidate/kernel"
  input: "rnn/multi_rnn_cell/cell_0/gru_cell/candidate/kernel/Adam"
  input: "rnn/multi_rnn_cell/cell_0/gru_cell/candidate/kernel/Adam_1"
  input: "rnn/multi_rnn_cell/cell_0/gru_cell/gates/bias"
  input: "rnn/multi_rnn_cell/cell_0/gru_cell/gates/bias/Adam"
  input: "rnn/multi_rnn_cell/cell_0/gru_cell/gates/bias/Adam_1"
  input: "rnn/multi_rnn_cell/cell_0/gru_cell/gates/kernel"
  input: "rnn/multi_rnn_cell/cell_0/gru_cell/gates/kernel/Adam"
  input: "rnn/multi_rnn_cell/cell_0/gru_cell/gates/kernel/Adam_1"
  input: "rnn/multi_rnn_cell/cell_1/gru_cell/candidate/bias"
  input: "rnn/multi_rnn_cell/cell_1/gru_cell/candidate/bias/Adam"
  input: "rnn/multi_rnn_cell/cell_1/gru_cell/candidate/bias/Adam_1"
  input: "rnn/multi_rnn_cell/cell_1/gru_cell/candidate/kernel"
  input: "rnn/multi_rnn_cell/cell_1/gru_cell/candidate/kernel/Adam"
  input: "rnn/multi_rnn_cell/cell_1/gru_cell/candidate/kernel/Adam_1"
  input: "rnn/multi_rnn_cell/cell_1/gru_cell/gates/bias"
  input: "rnn/multi_rnn_cell/cell_1/gru_cell/gates/bias/Adam"
  input: "rnn/multi_rnn_cell/cell_1/gru_cell/gates/bias/Adam_1"
  input: "rnn/multi_rnn_cell/cell_1/gru_cell/gates/kernel"
  input: "rnn/multi_rnn_cell/cell_1/gru_cell/gates/kernel/Adam"
  input: "rnn/multi_rnn_cell/cell_1/gru_cell/gates/kernel/Adam_1"
  device: "/device:CPU:0"
  attr {
    key: "dtypes"
    value {
      list {
        type: DT_FLOAT
        type: DT_FLOAT
        type: DT_FLOAT
        type: DT_FLOAT
        type: DT_FLOAT
        type: DT_FLOAT
        type: DT_FLOAT
        type: DT_FLOAT
        type: DT_INT64
        type: DT_FLOAT
        type: DT_FLOAT
        type: DT_FLOAT
        type: DT_FLOAT
        type: DT_FLOAT
        type: DT_FLOAT
        type: DT_FLOAT
        type: DT_FLOAT
        type: DT_FLOAT
        type: DT_FLOAT
        type: DT_FLOAT
        type: DT_FLOAT
        type: DT_FLOAT
        type: DT_FLOAT
        type: DT_FLOAT
        type: DT_FLOAT
        type: DT_FLOAT
        type: DT_FLOAT
        type: DT_FLOAT
        type: DT_FLOAT
        type: DT_FLOAT
        type: DT_FLOAT
        type: DT_FLOAT
        type: DT_FLOAT
      }
    }
  }
}
node {
  name: "save/control_dependency"
  op: "Identity"
  input: "save/ShardedFilename"
  input: "^save/SaveV2"
  device: "/device:CPU:0"
  attr {
    key: "T"
    value {
      type: DT_STRING
    }
  }
  attr {
    key: "_class"
    value {
      list {
        s: "loc:@save/ShardedFilename"
      }
    }
  }
  attr {
    key: "_output_shapes"
    value {
      list {
        shape {
        }
      }
    }
  }
}
node {
  name: "save/MergeV2Checkpoints/checkpoint_prefixes"
  op: "Pack"
  input: "save/ShardedFilename"
  input: "^save/control_dependency"
  device: "/device:CPU:0"
  attr {
    key: "N"
    value {
      i: 1
    }
  }
  attr {
    key: "T"
    value {
      type: DT_STRING
    }
  }
  attr {
    key: "_output_shapes"
    value {
      list {
        shape {
          dim {
            size: 1
          }
        }
      }
    }
  }
  attr {
    key: "axis"
    value {
      i: 0
    }
  }
}
node {
  name: "save/MergeV2Checkpoints"
  op: "MergeV2Checkpoints"
  input: "save/MergeV2Checkpoints/checkpoint_prefixes"
  input: "save/Const"
  device: "/device:CPU:0"
  attr {
    key: "delete_old_dirs"
    value {
      b: true
    }
  }
}
node {
  name: "save/Identity"
  op: "Identity"
  input: "save/Const"
  input: "^save/MergeV2Checkpoints"
  input: "^save/control_dependency"
  device: "/device:CPU:0"
  attr {
    key: "T"
    value {
      type: DT_STRING
    }
  }
  attr {
    key: "_output_shapes"
    value {
      list {
        shape {
        }
      }
    }
  }
}
node {
  name: "save/RestoreV2/tensor_names"
  op: "Const"
  device: "/device:CPU:0"
  attr {
    key: "_output_shapes"
    value {
      list {
        shape {
          dim {
            size: 33
          }
        }
      }
    }
  }
  attr {
    key: "dtype"
    value {
      type: DT_STRING
    }
  }
  attr {
    key: "value"
    value {
      tensor {
        dtype: DT_STRING
        tensor_shape {
          dim {
            size: 33
          }
        }
        string_val: "beta1_power"
        string_val: "beta2_power"
        string_val: "dense/bias"
        string_val: "dense/bias/Adam"
        string_val: "dense/bias/Adam_1"
        string_val: "dense/kernel"
        string_val: "dense/kernel/Adam"
        string_val: "dense/kernel/Adam_1"
        string_val: "global_step"
        string_val: "rnn/multi_rnn_cell/cell_0/gru_cell/candidate/bias"
        string_val: "rnn/multi_rnn_cell/cell_0/gru_cell/candidate/bias/Adam"
        string_val: "rnn/multi_rnn_cell/cell_0/gru_cell/candidate/bias/Adam_1"
        string_val: "rnn/multi_rnn_cell/cell_0/gru_cell/candidate/kernel"
        string_val: "rnn/multi_rnn_cell/cell_0/gru_cell/candidate/kernel/Adam"
        string_val: "rnn/multi_rnn_cell/cell_0/gru_cell/candidate/kernel/Adam_1"
        string_val: "rnn/multi_rnn_cell/cell_0/gru_cell/gates/bias"
        string_val: "rnn/multi_rnn_cell/cell_0/gru_cell/gates/bias/Adam"
        string_val: "rnn/multi_rnn_cell/cell_0/gru_cell/gates/bias/Adam_1"
        string_val: "rnn/multi_rnn_cell/cell_0/gru_cell/gates/kernel"
        string_val: "rnn/multi_rnn_cell/cell_0/gru_cell/gates/kernel/Adam"
        string_val: "rnn/multi_rnn_cell/cell_0/gru_cell/gates/kernel/Adam_1"
        string_val: "rnn/multi_rnn_cell/cell_1/gru_cell/candidate/bias"
        string_val: "rnn/multi_rnn_cell/cell_1/gru_cell/candidate/bias/Adam"
        string_val: "rnn/multi_rnn_cell/cell_1/gru_cell/candidate/bias/Adam_1"
        string_val: "rnn/multi_rnn_cell/cell_1/gru_cell/candidate/kernel"
        string_val: "rnn/multi_rnn_cell/cell_1/gru_cell/candidate/kernel/Adam"
        string_val: "rnn/multi_rnn_cell/cell_1/gru_cell/candidate/kernel/Adam_1"
        string_val: "rnn/multi_rnn_cell/cell_1/gru_cell/gates/bias"
        string_val: "rnn/multi_rnn_cell/cell_1/gru_cell/gates/bias/Adam"
        string_val: "rnn/multi_rnn_cell/cell_1/gru_cell/gates/bias/Adam_1"
        string_val: "rnn/multi_rnn_cell/cell_1/gru_cell/gates/kernel"
        string_val: "rnn/multi_rnn_cell/cell_1/gru_cell/gates/kernel/Adam"
        string_val: "rnn/multi_rnn_cell/cell_1/gru_cell/gates/kernel/Adam_1"
      }
    }
  }
}
node {
  name: "save/RestoreV2/shape_and_slices"
  op: "Const"
  device: "/device:CPU:0"
  attr {
    key: "_output_shapes"
    value {
      list {
        shape {
          dim {
            size: 33
          }
        }
      }
    }
  }
  attr {
    key: "dtype"
    value {
      type: DT_STRING
    }
  }
  attr {
    key: "value"
    value {
      tensor {
        dtype: DT_STRING
        tensor_shape {
          dim {
            size: 33
          }
        }
        string_val: ""
        string_val: ""
        string_val: ""
        string_val: ""
        string_val: ""
        string_val: ""
        string_val: ""
        string_val: ""
        string_val: ""
        string_val: ""
        string_val: ""
        string_val: ""
        string_val: ""
        string_val: ""
        string_val: ""
        string_val: ""
        string_val: ""
        string_val: ""
        string_val: ""
        string_val: ""
        string_val: ""
        string_val: ""
        string_val: ""
        string_val: ""
        string_val: ""
        string_val: ""
        string_val: ""
        string_val: ""
        string_val: ""
        string_val: ""
        string_val: ""
        string_val: ""
        string_val: ""
      }
    }
  }
}
node {
  name: "save/RestoreV2"
  op: "RestoreV2"
  input: "save/Const"
  input: "save/RestoreV2/tensor_names"
  input: "save/RestoreV2/shape_and_slices"
  device: "/device:CPU:0"
  attr {
    key: "_output_shapes"
    value {
      list {
        shape {
          unknown_rank: true
        }
        shape {
          unknown_rank: true
        }
        shape {
          unknown_rank: true
        }
        shape {
          unknown_rank: true
        }
        shape {
          unknown_rank: true
        }
        shape {
          unknown_rank: true
        }
        shape {
          unknown_rank: true
        }
        shape {
          unknown_rank: true
        }
        shape {
          unknown_rank: true
        }
        shape {
          unknown_rank: true
        }
        shape {
          unknown_rank: true
        }
        shape {
          unknown_rank: true
        }
        shape {
          unknown_rank: true
        }
        shape {
          unknown_rank: true
        }
        shape {
          unknown_rank: true
        }
        shape {
          unknown_rank: true
        }
        shape {
          unknown_rank: true
        }
        shape {
          unknown_rank: true
        }
        shape {
          unknown_rank: true
        }
        shape {
          unknown_rank: true
        }
        shape {
          unknown_rank: true
        }
        shape {
          unknown_rank: true
        }
        shape {
          unknown_rank: true
        }
        shape {
          unknown_rank: true
        }
        shape {
          unknown_rank: true
        }
        shape {
          unknown_rank: true
        }
        shape {
          unknown_rank: true
        }
        shape {
          unknown_rank: true
        }
        shape {
          unknown_rank: true
        }
        shape {
          unknown_rank: true
        }
        shape {
          unknown_rank: true
        }
        shape {
          unknown_rank: true
        }
        shape {
          unknown_rank: true
        }
      }
    }
  }
  attr {
    key: "dtypes"
    value {
      list {
        type: DT_FLOAT
        type: DT_FLOAT
        type: DT_FLOAT
        type: DT_FLOAT
        type: DT_FLOAT
        type: DT_FLOAT
        type: DT_FLOAT
        type: DT_FLOAT
        type: DT_INT64
        type: DT_FLOAT
        type: DT_FLOAT
        type: DT_FLOAT
        type: DT_FLOAT
        type: DT_FLOAT
        type: DT_FLOAT
        type: DT_FLOAT
        type: DT_FLOAT
        type: DT_FLOAT
        type: DT_FLOAT
        type: DT_FLOAT
        type: DT_FLOAT
        type: DT_FLOAT
        type: DT_FLOAT
        type: DT_FLOAT
        type: DT_FLOAT
        type: DT_FLOAT
        type: DT_FLOAT
        type: DT_FLOAT
        type: DT_FLOAT
        type: DT_FLOAT
        type: DT_FLOAT
        type: DT_FLOAT
        type: DT_FLOAT
      }
    }
  }
}
node {
  name: "save/Assign"
  op: "Assign"
  input: "beta1_power"
  input: "save/RestoreV2"
  attr {
    key: "T"
    value {
      type: DT_FLOAT
    }
  }
  attr {
    key: "_class"
    value {
      list {
        s: "loc:@dense/bias"
      }
    }
  }
  attr {
    key: "_output_shapes"
    value {
      list {
        shape {
        }
      }
    }
  }
  attr {
    key: "use_locking"
    value {
      b: true
    }
  }
  attr {
    key: "validate_shape"
    value {
      b: true
    }
  }
}
node {
  name: "save/Assign_1"
  op: "Assign"
  input: "beta2_power"
  input: "save/RestoreV2:1"
  attr {
    key: "T"
    value {
      type: DT_FLOAT
    }
  }
  attr {
    key: "_class"
    value {
      list {
        s: "loc:@dense/bias"
      }
    }
  }
  attr {
    key: "_output_shapes"
    value {
      list {
        shape {
        }
      }
    }
  }
  attr {
    key: "use_locking"
    value {
      b: true
    }
  }
  attr {
    key: "validate_shape"
    value {
      b: true
    }
  }
}
node {
  name: "save/Assign_2"
  op: "Assign"
  input: "dense/bias"
  input: "save/RestoreV2:2"
  attr {
    key: "T"
    value {
      type: DT_FLOAT
    }
  }
  attr {
    key: "_class"
    value {
      list {
        s: "loc:@dense/bias"
      }
    }
  }
  attr {
    key: "_output_shapes"
    value {
      list {
        shape {
          dim {
            size: 1
          }
        }
      }
    }
  }
  attr {
    key: "use_locking"
    value {
      b: true
    }
  }
  attr {
    key: "validate_shape"
    value {
      b: true
    }
  }
}
node {
  name: "save/Assign_3"
  op: "Assign"
  input: "dense/bias/Adam"
  input: "save/RestoreV2:3"
  attr {
    key: "T"
    value {
      type: DT_FLOAT
    }
  }
  attr {
    key: "_class"
    value {
      list {
        s: "loc:@dense/bias"
      }
    }
  }
  attr {
    key: "_output_shapes"
    value {
      list {
        shape {
          dim {
            size: 1
          }
        }
      }
    }
  }
  attr {
    key: "use_locking"
    value {
      b: true
    }
  }
  attr {
    key: "validate_shape"
    value {
      b: true
    }
  }
}
node {
  name: "save/Assign_4"
  op: "Assign"
  input: "dense/bias/Adam_1"
  input: "save/RestoreV2:4"
  attr {
    key: "T"
    value {
      type: DT_FLOAT
    }
  }
  attr {
    key: "_class"
    value {
      list {
        s: "loc:@dense/bias"
      }
    }
  }
  attr {
    key: "_output_shapes"
    value {
      list {
        shape {
          dim {
            size: 1
          }
        }
      }
    }
  }
  attr {
    key: "use_locking"
    value {
      b: true
    }
  }
  attr {
    key: "validate_shape"
    value {
      b: true
    }
  }
}
node {
  name: "save/Assign_5"
  op: "Assign"
  input: "dense/kernel"
  input: "save/RestoreV2:5"
  attr {
    key: "T"
    value {
      type: DT_FLOAT
    }
  }
  attr {
    key: "_class"
    value {
      list {
        s: "loc:@dense/kernel"
      }
    }
  }
  attr {
    key: "_output_shapes"
    value {
      list {
        shape {
          dim {
            size: 80
          }
          dim {
            size: 1
          }
        }
      }
    }
  }
  attr {
    key: "use_locking"
    value {
      b: true
    }
  }
  attr {
    key: "validate_shape"
    value {
      b: true
    }
  }
}
node {
  name: "save/Assign_6"
  op: "Assign"
  input: "dense/kernel/Adam"
  input: "save/RestoreV2:6"
  attr {
    key: "T"
    value {
      type: DT_FLOAT
    }
  }
  attr {
    key: "_class"
    value {
      list {
        s: "loc:@dense/kernel"
      }
    }
  }
  attr {
    key: "_output_shapes"
    value {
      list {
        shape {
          dim {
            size: 80
          }
          dim {
            size: 1
          }
        }
      }
    }
  }
  attr {
    key: "use_locking"
    value {
      b: true
    }
  }
  attr {
    key: "validate_shape"
    value {
      b: true
    }
  }
}
node {
  name: "save/Assign_7"
  op: "Assign"
  input: "dense/kernel/Adam_1"
  input: "save/RestoreV2:7"
  attr {
    key: "T"
    value {
      type: DT_FLOAT
    }
  }
  attr {
    key: "_class"
    value {
      list {
        s: "loc:@dense/kernel"
      }
    }
  }
  attr {
    key: "_output_shapes"
    value {
      list {
        shape {
          dim {
            size: 80
          }
          dim {
            size: 1
          }
        }
      }
    }
  }
  attr {
    key: "use_locking"
    value {
      b: true
    }
  }
  attr {
    key: "validate_shape"
    value {
      b: true
    }
  }
}
node {
  name: "save/Assign_8"
  op: "Assign"
  input: "global_step"
  input: "save/RestoreV2:8"
  attr {
    key: "T"
    value {
      type: DT_INT64
    }
  }
  attr {
    key: "_class"
    value {
      list {
        s: "loc:@global_step"
      }
    }
  }
  attr {
    key: "_output_shapes"
    value {
      list {
        shape {
        }
      }
    }
  }
  attr {
    key: "use_locking"
    value {
      b: true
    }
  }
  attr {
    key: "validate_shape"
    value {
      b: true
    }
  }
}
node {
  name: "save/Assign_9"
  op: "Assign"
  input: "rnn/multi_rnn_cell/cell_0/gru_cell/candidate/bias"
  input: "save/RestoreV2:9"
  attr {
    key: "T"
    value {
      type: DT_FLOAT
    }
  }
  attr {
    key: "_class"
    value {
      list {
        s: "loc:@rnn/multi_rnn_cell/cell_0/gru_cell/candidate/bias"
      }
    }
  }
  attr {
    key: "_output_shapes"
    value {
      list {
        shape {
          dim {
            size: 80
          }
        }
      }
    }
  }
  attr {
    key: "use_locking"
    value {
      b: true
    }
  }
  attr {
    key: "validate_shape"
    value {
      b: true
    }
  }
}
node {
  name: "save/Assign_10"
  op: "Assign"
  input: "rnn/multi_rnn_cell/cell_0/gru_cell/candidate/bias/Adam"
  input: "save/RestoreV2:10"
  attr {
    key: "T"
    value {
      type: DT_FLOAT
    }
  }
  attr {
    key: "_class"
    value {
      list {
        s: "loc:@rnn/multi_rnn_cell/cell_0/gru_cell/candidate/bias"
      }
    }
  }
  attr {
    key: "_output_shapes"
    value {
      list {
        shape {
          dim {
            size: 80
          }
        }
      }
    }
  }
  attr {
    key: "use_locking"
    value {
      b: true
    }
  }
  attr {
    key: "validate_shape"
    value {
      b: true
    }
  }
}
node {
  name: "save/Assign_11"
  op: "Assign"
  input: "rnn/multi_rnn_cell/cell_0/gru_cell/candidate/bias/Adam_1"
  input: "save/RestoreV2:11"
  attr {
    key: "T"
    value {
      type: DT_FLOAT
    }
  }
  attr {
    key: "_class"
    value {
      list {
        s: "loc:@rnn/multi_rnn_cell/cell_0/gru_cell/candidate/bias"
      }
    }
  }
  attr {
    key: "_output_shapes"
    value {
      list {
        shape {
          dim {
            size: 80
          }
        }
      }
    }
  }
  attr {
    key: "use_locking"
    value {
      b: true
    }
  }
  attr {
    key: "validate_shape"
    value {
      b: true
    }
  }
}
node {
  name: "save/Assign_12"
  op: "Assign"
  input: "rnn/multi_rnn_cell/cell_0/gru_cell/candidate/kernel"
  input: "save/RestoreV2:12"
  attr {
    key: "T"
    value {
      type: DT_FLOAT
    }
  }
  attr {
    key: "_class"
    value {
      list {
        s: "loc:@rnn/multi_rnn_cell/cell_0/gru_cell/candidate/kernel"
      }
    }
  }
  attr {
    key: "_output_shapes"
    value {
      list {
        shape {
          dim {
            size: 81
          }
          dim {
            size: 80
          }
        }
      }
    }
  }
  attr {
    key: "use_locking"
    value {
      b: true
    }
  }
  attr {
    key: "validate_shape"
    value {
      b: true
    }
  }
}
node {
  name: "save/Assign_13"
  op: "Assign"
  input: "rnn/multi_rnn_cell/cell_0/gru_cell/candidate/kernel/Adam"
  input: "save/RestoreV2:13"
  attr {
    key: "T"
    value {
      type: DT_FLOAT
    }
  }
  attr {
    key: "_class"
    value {
      list {
        s: "loc:@rnn/multi_rnn_cell/cell_0/gru_cell/candidate/kernel"
      }
    }
  }
  attr {
    key: "_output_shapes"
    value {
      list {
        shape {
          dim {
            size: 81
          }
          dim {
            size: 80
          }
        }
      }
    }
  }
  attr {
    key: "use_locking"
    value {
      b: true
    }
  }
  attr {
    key: "validate_shape"
    value {
      b: true
    }
  }
}
node {
  name: "save/Assign_14"
  op: "Assign"
  input: "rnn/multi_rnn_cell/cell_0/gru_cell/candidate/kernel/Adam_1"
  input: "save/RestoreV2:14"
  attr {
    key: "T"
    value {
      type: DT_FLOAT
    }
  }
  attr {
    key: "_class"
    value {
      list {
        s: "loc:@rnn/multi_rnn_cell/cell_0/gru_cell/candidate/kernel"
      }
    }
  }
  attr {
    key: "_output_shapes"
    value {
      list {
        shape {
          dim {
            size: 81
          }
          dim {
            size: 80
          }
        }
      }
    }
  }
  attr {
    key: "use_locking"
    value {
      b: true
    }
  }
  attr {
    key: "validate_shape"
    value {
      b: true
    }
  }
}
node {
  name: "save/Assign_15"
  op: "Assign"
  input: "rnn/multi_rnn_cell/cell_0/gru_cell/gates/bias"
  input: "save/RestoreV2:15"
  attr {
    key: "T"
    value {
      type: DT_FLOAT
    }
  }
  attr {
    key: "_class"
    value {
      list {
        s: "loc:@rnn/multi_rnn_cell/cell_0/gru_cell/gates/bias"
      }
    }
  }
  attr {
    key: "_output_shapes"
    value {
      list {
        shape {
          dim {
            size: 160
          }
        }
      }
    }
  }
  attr {
    key: "use_locking"
    value {
      b: true
    }
  }
  attr {
    key: "validate_shape"
    value {
      b: true
    }
  }
}
node {
  name: "save/Assign_16"
  op: "Assign"
  input: "rnn/multi_rnn_cell/cell_0/gru_cell/gates/bias/Adam"
  input: "save/RestoreV2:16"
  attr {
    key: "T"
    value {
      type: DT_FLOAT
    }
  }
  attr {
    key: "_class"
    value {
      list {
        s: "loc:@rnn/multi_rnn_cell/cell_0/gru_cell/gates/bias"
      }
    }
  }
  attr {
    key: "_output_shapes"
    value {
      list {
        shape {
          dim {
            size: 160
          }
        }
      }
    }
  }
  attr {
    key: "use_locking"
    value {
      b: true
    }
  }
  attr {
    key: "validate_shape"
    value {
      b: true
    }
  }
}
node {
  name: "save/Assign_17"
  op: "Assign"
  input: "rnn/multi_rnn_cell/cell_0/gru_cell/gates/bias/Adam_1"
  input: "save/RestoreV2:17"
  attr {
    key: "T"
    value {
      type: DT_FLOAT
    }
  }
  attr {
    key: "_class"
    value {
      list {
        s: "loc:@rnn/multi_rnn_cell/cell_0/gru_cell/gates/bias"
      }
    }
  }
  attr {
    key: "_output_shapes"
    value {
      list {
        shape {
          dim {
            size: 160
          }
        }
      }
    }
  }
  attr {
    key: "use_locking"
    value {
      b: true
    }
  }
  attr {
    key: "validate_shape"
    value {
      b: true
    }
  }
}
node {
  name: "save/Assign_18"
  op: "Assign"
  input: "rnn/multi_rnn_cell/cell_0/gru_cell/gates/kernel"
  input: "save/RestoreV2:18"
  attr {
    key: "T"
    value {
      type: DT_FLOAT
    }
  }
  attr {
    key: "_class"
    value {
      list {
        s: "loc:@rnn/multi_rnn_cell/cell_0/gru_cell/gates/kernel"
      }
    }
  }
  attr {
    key: "_output_shapes"
    value {
      list {
        shape {
          dim {
            size: 81
          }
          dim {
            size: 160
          }
        }
      }
    }
  }
  attr {
    key: "use_locking"
    value {
      b: true
    }
  }
  attr {
    key: "validate_shape"
    value {
      b: true
    }
  }
}
node {
  name: "save/Assign_19"
  op: "Assign"
  input: "rnn/multi_rnn_cell/cell_0/gru_cell/gates/kernel/Adam"
  input: "save/RestoreV2:19"
  attr {
    key: "T"
    value {
      type: DT_FLOAT
    }
  }
  attr {
    key: "_class"
    value {
      list {
        s: "loc:@rnn/multi_rnn_cell/cell_0/gru_cell/gates/kernel"
      }
    }
  }
  attr {
    key: "_output_shapes"
    value {
      list {
        shape {
          dim {
            size: 81
          }
          dim {
            size: 160
          }
        }
      }
    }
  }
  attr {
    key: "use_locking"
    value {
      b: true
    }
  }
  attr {
    key: "validate_shape"
    value {
      b: true
    }
  }
}
node {
  name: "save/Assign_20"
  op: "Assign"
  input: "rnn/multi_rnn_cell/cell_0/gru_cell/gates/kernel/Adam_1"
  input: "save/RestoreV2:20"
  attr {
    key: "T"
    value {
      type: DT_FLOAT
    }
  }
  attr {
    key: "_class"
    value {
      list {
        s: "loc:@rnn/multi_rnn_cell/cell_0/gru_cell/gates/kernel"
      }
    }
  }
  attr {
    key: "_output_shapes"
    value {
      list {
        shape {
          dim {
            size: 81
          }
          dim {
            size: 160
          }
        }
      }
    }
  }
  attr {
    key: "use_locking"
    value {
      b: true
    }
  }
  attr {
    key: "validate_shape"
    value {
      b: true
    }
  }
}
node {
  name: "save/Assign_21"
  op: "Assign"
  input: "rnn/multi_rnn_cell/cell_1/gru_cell/candidate/bias"
  input: "save/RestoreV2:21"
  attr {
    key: "T"
    value {
      type: DT_FLOAT
    }
  }
  attr {
    key: "_class"
    value {
      list {
        s: "loc:@rnn/multi_rnn_cell/cell_1/gru_cell/candidate/bias"
      }
    }
  }
  attr {
    key: "_output_shapes"
    value {
      list {
        shape {
          dim {
            size: 80
          }
        }
      }
    }
  }
  attr {
    key: "use_locking"
    value {
      b: true
    }
  }
  attr {
    key: "validate_shape"
    value {
      b: true
    }
  }
}
node {
  name: "save/Assign_22"
  op: "Assign"
  input: "rnn/multi_rnn_cell/cell_1/gru_cell/candidate/bias/Adam"
  input: "save/RestoreV2:22"
  attr {
    key: "T"
    value {
      type: DT_FLOAT
    }
  }
  attr {
    key: "_class"
    value {
      list {
        s: "loc:@rnn/multi_rnn_cell/cell_1/gru_cell/candidate/bias"
      }
    }
  }
  attr {
    key: "_output_shapes"
    value {
      list {
        shape {
          dim {
            size: 80
          }
        }
      }
    }
  }
  attr {
    key: "use_locking"
    value {
      b: true
    }
  }
  attr {
    key: "validate_shape"
    value {
      b: true
    }
  }
}
node {
  name: "save/Assign_23"
  op: "Assign"
  input: "rnn/multi_rnn_cell/cell_1/gru_cell/candidate/bias/Adam_1"
  input: "save/RestoreV2:23"
  attr {
    key: "T"
    value {
      type: DT_FLOAT
    }
  }
  attr {
    key: "_class"
    value {
      list {
        s: "loc:@rnn/multi_rnn_cell/cell_1/gru_cell/candidate/bias"
      }
    }
  }
  attr {
    key: "_output_shapes"
    value {
      list {
        shape {
          dim {
            size: 80
          }
        }
      }
    }
  }
  attr {
    key: "use_locking"
    value {
      b: true
    }
  }
  attr {
    key: "validate_shape"
    value {
      b: true
    }
  }
}
node {
  name: "save/Assign_24"
  op: "Assign"
  input: "rnn/multi_rnn_cell/cell_1/gru_cell/candidate/kernel"
  input: "save/RestoreV2:24"
  attr {
    key: "T"
    value {
      type: DT_FLOAT
    }
  }
  attr {
    key: "_class"
    value {
      list {
        s: "loc:@rnn/multi_rnn_cell/cell_1/gru_cell/candidate/kernel"
      }
    }
  }
  attr {
    key: "_output_shapes"
    value {
      list {
        shape {
          dim {
            size: 160
          }
          dim {
            size: 80
          }
        }
      }
    }
  }
  attr {
    key: "use_locking"
    value {
      b: true
    }
  }
  attr {
    key: "validate_shape"
    value {
      b: true
    }
  }
}
node {
  name: "save/Assign_25"
  op: "Assign"
  input: "rnn/multi_rnn_cell/cell_1/gru_cell/candidate/kernel/Adam"
  input: "save/RestoreV2:25"
  attr {
    key: "T"
    value {
      type: DT_FLOAT
    }
  }
  attr {
    key: "_class"
    value {
      list {
        s: "loc:@rnn/multi_rnn_cell/cell_1/gru_cell/candidate/kernel"
      }
    }
  }
  attr {
    key: "_output_shapes"
    value {
      list {
        shape {
          dim {
            size: 160
          }
          dim {
            size: 80
          }
        }
      }
    }
  }
  attr {
    key: "use_locking"
    value {
      b: true
    }
  }
  attr {
    key: "validate_shape"
    value {
      b: true
    }
  }
}
node {
  name: "save/Assign_26"
  op: "Assign"
  input: "rnn/multi_rnn_cell/cell_1/gru_cell/candidate/kernel/Adam_1"
  input: "save/RestoreV2:26"
  attr {
    key: "T"
    value {
      type: DT_FLOAT
    }
  }
  attr {
    key: "_class"
    value {
      list {
        s: "loc:@rnn/multi_rnn_cell/cell_1/gru_cell/candidate/kernel"
      }
    }
  }
  attr {
    key: "_output_shapes"
    value {
      list {
        shape {
          dim {
            size: 160
          }
          dim {
            size: 80
          }
        }
      }
    }
  }
  attr {
    key: "use_locking"
    value {
      b: true
    }
  }
  attr {
    key: "validate_shape"
    value {
      b: true
    }
  }
}
node {
  name: "save/Assign_27"
  op: "Assign"
  input: "rnn/multi_rnn_cell/cell_1/gru_cell/gates/bias"
  input: "save/RestoreV2:27"
  attr {
    key: "T"
    value {
      type: DT_FLOAT
    }
  }
  attr {
    key: "_class"
    value {
      list {
        s: "loc:@rnn/multi_rnn_cell/cell_1/gru_cell/gates/bias"
      }
    }
  }
  attr {
    key: "_output_shapes"
    value {
      list {
        shape {
          dim {
            size: 160
          }
        }
      }
    }
  }
  attr {
    key: "use_locking"
    value {
      b: true
    }
  }
  attr {
    key: "validate_shape"
    value {
      b: true
    }
  }
}
node {
  name: "save/Assign_28"
  op: "Assign"
  input: "rnn/multi_rnn_cell/cell_1/gru_cell/gates/bias/Adam"
  input: "save/RestoreV2:28"
  attr {
    key: "T"
    value {
      type: DT_FLOAT
    }
  }
  attr {
    key: "_class"
    value {
      list {
        s: "loc:@rnn/multi_rnn_cell/cell_1/gru_cell/gates/bias"
      }
    }
  }
  attr {
    key: "_output_shapes"
    value {
      list {
        shape {
          dim {
            size: 160
          }
        }
      }
    }
  }
  attr {
    key: "use_locking"
    value {
      b: true
    }
  }
  attr {
    key: "validate_shape"
    value {
      b: true
    }
  }
}
node {
  name: "save/Assign_29"
  op: "Assign"
  input: "rnn/multi_rnn_cell/cell_1/gru_cell/gates/bias/Adam_1"
  input: "save/RestoreV2:29"
  attr {
    key: "T"
    value {
      type: DT_FLOAT
    }
  }
  attr {
    key: "_class"
    value {
      list {
        s: "loc:@rnn/multi_rnn_cell/cell_1/gru_cell/gates/bias"
      }
    }
  }
  attr {
    key: "_output_shapes"
    value {
      list {
        shape {
          dim {
            size: 160
          }
        }
      }
    }
  }
  attr {
    key: "use_locking"
    value {
      b: true
    }
  }
  attr {
    key: "validate_shape"
    value {
      b: true
    }
  }
}
node {
  name: "save/Assign_30"
  op: "Assign"
  input: "rnn/multi_rnn_cell/cell_1/gru_cell/gates/kernel"
  input: "save/RestoreV2:30"
  attr {
    key: "T"
    value {
      type: DT_FLOAT
    }
  }
  attr {
    key: "_class"
    value {
      list {
        s: "loc:@rnn/multi_rnn_cell/cell_1/gru_cell/gates/kernel"
      }
    }
  }
  attr {
    key: "_output_shapes"
    value {
      list {
        shape {
          dim {
            size: 160
          }
          dim {
            size: 160
          }
        }
      }
    }
  }
  attr {
    key: "use_locking"
    value {
      b: true
    }
  }
  attr {
    key: "validate_shape"
    value {
      b: true
    }
  }
}
node {
  name: "save/Assign_31"
  op: "Assign"
  input: "rnn/multi_rnn_cell/cell_1/gru_cell/gates/kernel/Adam"
  input: "save/RestoreV2:31"
  attr {
    key: "T"
    value {
      type: DT_FLOAT
    }
  }
  attr {
    key: "_class"
    value {
      list {
        s: "loc:@rnn/multi_rnn_cell/cell_1/gru_cell/gates/kernel"
      }
    }
  }
  attr {
    key: "_output_shapes"
    value {
      list {
        shape {
          dim {
            size: 160
          }
          dim {
            size: 160
          }
        }
      }
    }
  }
  attr {
    key: "use_locking"
    value {
      b: true
    }
  }
  attr {
    key: "validate_shape"
    value {
      b: true
    }
  }
}
node {
  name: "save/Assign_32"
  op: "Assign"
  input: "rnn/multi_rnn_cell/cell_1/gru_cell/gates/kernel/Adam_1"
  input: "save/RestoreV2:32"
  attr {
    key: "T"
    value {
      type: DT_FLOAT
    }
  }
  attr {
    key: "_class"
    value {
      list {
        s: "loc:@rnn/multi_rnn_cell/cell_1/gru_cell/gates/kernel"
      }
    }
  }
  attr {
    key: "_output_shapes"
    value {
      list {
        shape {
          dim {
            size: 160
          }
          dim {
            size: 160
          }
        }
      }
    }
  }
  attr {
    key: "use_locking"
    value {
      b: true
    }
  }
  attr {
    key: "validate_shape"
    value {
      b: true
    }
  }
}
node {
  name: "save/restore_shard"
  op: "NoOp"
  input: "^save/Assign"
  input: "^save/Assign_1"
  input: "^save/Assign_10"
  input: "^save/Assign_11"
  input: "^save/Assign_12"
  input: "^save/Assign_13"
  input: "^save/Assign_14"
  input: "^save/Assign_15"
  input: "^save/Assign_16"
  input: "^save/Assign_17"
  input: "^save/Assign_18"
  input: "^save/Assign_19"
  input: "^save/Assign_2"
  input: "^save/Assign_20"
  input: "^save/Assign_21"
  input: "^save/Assign_22"
  input: "^save/Assign_23"
  input: "^save/Assign_24"
  input: "^save/Assign_25"
  input: "^save/Assign_26"
  input: "^save/Assign_27"
  input: "^save/Assign_28"
  input: "^save/Assign_29"
  input: "^save/Assign_3"
  input: "^save/Assign_30"
  input: "^save/Assign_31"
  input: "^save/Assign_32"
  input: "^save/Assign_4"
  input: "^save/Assign_5"
  input: "^save/Assign_6"
  input: "^save/Assign_7"
  input: "^save/Assign_8"
  input: "^save/Assign_9"
}
node {
  name: "save/restore_all"
  op: "NoOp"
  input: "^save/restore_shard"
}
library {
  function {
    signature {
      name: "_make_dataset_yffAtLfeL8Q"
      output_arg {
        name: "batchdatasetv2"
        type: DT_VARIANT
      }
      is_stateful: true
    }
    node_def {
      name: "TensorSliceDataset/tensors/component_0"
      op: "Const"
      device: "/device:CPU:0"
      attr {
        key: "dtype"
        value {
          type: DT_FLOAT
        }
      }
      attr {
        key: "value"
        value {
          tensor {
            dtype: DT_FLOAT
            tensor_shape {
              dim {
                size: 120
              }
              dim {
                size: 10
              }
            }
            tensor_content: "…"
          }
        }
      }
    }
    node_def {
      name: "TensorSliceDataset/tensors/component_1"
      op: "Const"
      device: "/device:CPU:0"
      attr {
        key: "dtype"
        value {
          type: DT_FLOAT
        }
      }
      attr {
        key: "value"
        value {
          tensor {
            dtype: DT_FLOAT
            tensor_shape {
              dim {
                size: 120
              }
              dim {
                size: 10
              }
            }
            tensor_content: "…"
          }
        }
      }
    }
    node_def {
      name: "TensorSliceDataset"
      op: "TensorSliceDataset"
      input: "TensorSliceDataset/tensors/component_0:output:0"
      input: "TensorSliceDataset/tensors/component_1:output:0"
      device: "/device:CPU:0"
      attr {
        key: "Toutput_types"
        value {
          list {
            type: DT_FLOAT
            type: DT_FLOAT
          }
        }
      }
      attr {
        key: "output_shapes"
        value {
          list {
            shape {
              dim {
                size: 10
              }
            }
            shape {
              dim {
                size: 10
              }
            }
          }
        }
      }
    }
    node_def {
      name: "RepeatDataset/count"
      op: "Const"
      device: "/device:CPU:0"
      attr {
        key: "dtype"
        value {
          type: DT_INT64
        }
      }
      attr {
        key: "value"
        value {
          tensor {
            dtype: DT_INT64
            tensor_shape {
            }
            int64_val: -1
          }
        }
      }
    }
    node_def {
      name: "RepeatDataset"
      op: "RepeatDataset"
      input: "TensorSliceDataset:handle:0"
      input: "RepeatDataset/count:output:0"
      device: "/device:CPU:0"
      attr {
        key: "output_shapes"
        value {
          list {
            shape {
              dim {
                size: 10
              }
            }
            shape {
              dim {
                size: 10
              }
            }
          }
        }
      }
      attr {
        key: "output_types"
        value {
          list {
            type: DT_FLOAT
            type: DT_FLOAT
          }
        }
      }
    }
    node_def {
      name: "ShuffleDataset/buffer_size"
      op: "Const"
      device: "/device:CPU:0"
      attr {
        key: "dtype"
        value {
          type: DT_INT64
        }
      }
      attr {
        key: "value"
        value {
          tensor {
            dtype: DT_INT64
            tensor_shape {
            }
            int64_val: 580
          }
        }
      }
    }
    node_def {
      name: "ShuffleDataset/seed"
      op: "Const"
      device: "/device:CPU:0"
      attr {
        key: "dtype"
        value {
          type: DT_INT64
        }
      }
      attr {
        key: "value"
        value {
          tensor {
            dtype: DT_INT64
            tensor_shape {
            }
            int64_val: 0
          }
        }
      }
    }
    node_def {
      name: "ShuffleDataset/seed2"
      op: "Const"
      device: "/device:CPU:0"
      attr {
        key: "dtype"
        value {
          type: DT_INT64
        }
      }
      attr {
        key: "value"
        value {
          tensor {
            dtype: DT_INT64
            tensor_shape {
            }
            int64_val: 0
          }
        }
      }
    }
    node_def {
      name: "ShuffleDataset"
      op: "ShuffleDataset"
      input: "RepeatDataset:handle:0"
      input: "ShuffleDataset/buffer_size:output:0"
      input: "ShuffleDataset/seed:output:0"
      input: "ShuffleDataset/seed2:output:0"
      device: "/device:CPU:0"
      attr {
        key: "output_shapes"
        value {
          list {
            shape {
              dim {
                size: 10
              }
            }
            shape {
              dim {
                size: 10
              }
            }
          }
        }
      }
      attr {
        key: "output_types"
        value {
          list {
            type: DT_FLOAT
            type: DT_FLOAT
          }
        }
      }
      attr {
        key: "reshuffle_each_iteration"
        value {
          b: true
        }
      }
    }
    node_def {
      name: "BatchDatasetV2/batch_size"
      op: "Const"
      device: "/device:CPU:0"
      attr {
        key: "dtype"
        value {
          type: DT_INT64
        }
      }
      attr {
        key: "value"
        value {
          tensor {
            dtype: DT_INT64
            tensor_shape {
            }
            int64_val: 32
          }
        }
      }
    }
    node_def {
      name: "BatchDatasetV2/drop_remainder"
      op: "Const"
      device: "/device:CPU:0"
      attr {
        key: "dtype"
        value {
          type: DT_BOOL
        }
      }
      attr {
        key: "value"
        value {
          tensor {
            dtype: DT_BOOL
            tensor_shape {
            }
            bool_val: false
          }
        }
      }
    }
    node_def {
      name: "BatchDatasetV2"
      op: "BatchDatasetV2"
      input: "ShuffleDataset:handle:0"
      input: "BatchDatasetV2/batch_size:output:0"
      input: "BatchDatasetV2/drop_remainder:output:0"
      device: "/device:CPU:0"
      attr {
        key: "output_shapes"
        value {
          list {
            shape {
              dim {
                size: -1
              }
              dim {
                size: 10
              }
            }
            shape {
              dim {
                size: -1
              }
              dim {
                size: 10
              }
            }
          }
        }
      }
      attr {
        key: "output_types"
        value {
          list {
            type: DT_FLOAT
            type: DT_FLOAT
          }
        }
      }
    }
    ret {
      key: "batchdatasetv2"
      value: "BatchDatasetV2:handle:0"
    }
  }
}
versions {
  producer: 26
  min_consumer: 12
}
